bgt60tr13c_driver/config/best_model.pth (torch, 68002 bytes, 10 tensors)

conv1.weight f4 [16, 3, 3, 3]
0	0xbd301b74	-0.04299493
1	0xbd483a5c	-0.04888378
2	0x3e1c2cce	0.15251467
3	0x3caf6fe3	0.021415656
4	0xbd396f5a	-0.04527221
5	0x3d354104	0.044251457
6	0xbe320e19	-0.1738819
7	0x3e41be51	0.18920256
8	0x3d4fefe9	0.050765906
9	0x3d8a9d8f	0.06768333
10	0xbe115931	-0.1419418
11	0x3e16ab27	0.14713727
12	0xbe21f7ca	-0.1581718
13	0xbd88f560	-0.066874266
14	0xbdfcb8ab	-0.1233991
15	0xbdc70d5e	-0.097193465
16	0x3d283838	0.04106924
17	0xbe436f8d	-0.19085522
18	0xbe40ed07	-0.18840419
19	0x3d3413d5	0.043964226
20	0x3d81e661	0.063427694
21	0x3b34c98d	0.0027585954
22	0xbd95bcc3	-0.07311394
23	0xbd5c812c	-0.053834125
24	0xbcd9bcd0	-0.02657929
25	0xbd1fd3f3	-0.03902049
26	0xbdf3d4d0	-0.11905825
27	0x3e1455b3	0.14485817
28	0x3c641ae1	0.013922424
29	0xbe03d858	-0.12875497
30	0xbd203747	-0.039115217
31	0xbe13bd06	-0.14427575
32	0xbde6489f	-0.1124432
33	0x3e15af44	0.1461764
34	0x3d5d15a3	0.053975713
35	0x3dacaaaf	0.08430993
36	0xbccc8b37	-0.024968727
37	0xbd959732	-0.07304229
38	0xb891c3e6	-6.950628e-05
39	0xbe0c0090	-0.1367209
40	0xbe4fea64	-0.20304257
41	0x3e00bc06	0.12571725
42	0x3b8082f5	0.0039218613
43	0x3dd7712e	0.10519634
44	0x3e0a7d49	0.13524355
45	0x3dac6377	0.08417409
46	0xbdb9e1d7	-0.09076279
47	0xbd76c165	-0.06024303
48	0xbc248f84	-0.010043982
49	0x3b87b057	0.0041408944
50	0x3b021044	0.001984612
51	0xbe1a1202	-0.15045932
52	0xbde7ba17	-0.11314791
53	0x3e09fd48	0.13475525
54	0x3bc9da64	0.0061600674
55	0xbdb2b281	-0.08725453
56	0x3e053c71	0.13011338
57	0xbd69f452	-0.057117768
58	0xbda05086	-0.078278586
59	0x3e09bb0f	0.13450263
60	0xbe1b7a51	-0.15183379
61	0xbdbcc10b	-0.092165075
62	0x3e152467	0.14564668
63	0xbc9a27b8	-0.018817768
64	0xbda2877e	-0.07935999
65	0x3e2385f7	0.15969072
66	0x3cefe6ea	0.029284913
67	0xbe392889	-0.18081869
68	0xbe11ba2c	-0.14231175
69	0xbd47d3fa	-0.04878614
70	0xbc2d0a29	-0.010561504
71	0xbe146025	-0.14489801
72	0xbd9485e2	-0.072520986
73	0x3d853cb0	0.06505716
74	0xbe37c7df	-0.17947339
75	0xbe38adc4	-0.18035036
76	0x3d4cf162	0.050034888
77	0x3d1672c0	0.036730528
78	0xbe3e4fc8	-0.18585122
79	0xbe375c5f	-0.1790633
80	0x3e23bdec	0.15990418
81	0x3f62d395	0.886041
82	0x3e9a8ca9	0.3018544
83	0x3f239bf3	0.63909835
84	0x3f5b800d	0.85742265
85	0x3f142831	0.5787383
86	0x3ebc99cf	0.36836097
87	0xba0cf152	-0.00053765357
88	0x3df971b7	0.121798925
89	0x3dae0e4d	0.084988214
90	0xbed50be0	-0.41610622
91	0xbdea7e9e	-0.114499316
92	0x3ce81aac	0.02833303
93	0xbec84ff4	-0.391235
94	0xbed3f619	-0.41398695
95	0xbeb273a5	-0.34853855
96	0xbe2b1bdd	-0.16709848
97	0xbe23bb3d	-0.15989394
98	0xbe495e26	-0.19664821
99	0xbe2e1bac	-0.17002743
100	0x3df7a9fe	0.1209297
101	0x3e458792	0.19289997
102	0x3e245863	0.16049342
103	0x3dfacc7a	0.12246032
104	0x3dbb762e	0.091534
105	0xbde6c475	-0.1126794
106	0xbe5a58a0	-0.2132287
107	0xbe354d97	-0.1770538
108	0x3db27533	0.0871376
109	0x3c926314	0.01786951
110	0x3cc94453	0.024568712
111	0xbdef34ec	-0.11680016
112	0xbdeb1306	-0.11478238
113	0xbda638eb	-0.08116325
114	0xbcc81fb5	-0.024429182
115	0xbd14beec	-0.03631489
116	0x3ca6b892	0.020351682
117	0xbd8340bd	-0.06408832
118	0xbd4a18bd	-0.04934
119	0xbe1ac255	-0.15113194
120	0x3dc2c426	0.095100686
121	0xbe3fe4a9	-0.1873957
122	0x3bd48008	0.006484989
123	0xbe3b7c0e	-0.18309042
124	0xbde0c52f	-0.1097511
125	0x3e3e8c1f	0.1860814
126	0xbd1380c7	-0.036011484
127	0xbd75785c	-0.059929237
128	0x3d99eb5b	0.075155936
129	0xbe2a0225	-0.1660238
130	0xbd8d2d0b	-0.06893357
131	0xbcf88bb5	-0.030340055
132	0x3cb17086	0.0216601
133	0xbd028bf8	-0.031871766
134	0xbe0b02f3	-0.13575344
135	0xbe61e804	-0.22061163
136	0x3eed25a8	0.46317792
137	0x3f1cef7e	0.61302936
138	0xbdf7cea2	-0.12099959
139	0x3eef97dd	0.4679555
140	0x3f173a6c	0.5907352
141	0xbe56bb11	-0.20969798
142	0x3f190b40	0.5978279
143	0x3f23d0f5	0.6399072
144	0xbe0bbd01	-0.13646318
145	0x3e395449	0.18098558
146	0x3e11f1f3	0.14252453
147	0x3ddaed16	0.10689752
148	0x3e37bb20	0.17942476
149	0x3d638671	0.055548135
150	0x3d53f89a	0.051750757
151	0xbdbb09e2	-0.09132744
152	0x3d2911f9	0.041276906
153	0x3dc19205	0.09451679
154	0xbe221ed3	-0.15832071
155	0xbd413eb2	-0.04717893
156	0xbe3fb1c3	-0.18720154
157	0xbca7c729	-0.02048071
158	0xbced64a6	-0.028978657
159	0x3d64c19c	0.055848703
160	0xbdb95bbe	-0.090507016
161	0xb940d7e5	-0.00018390974
162	0x3ce37e7f	0.027770279
163	0xbcafef3f	-0.021476386
164	0xbe00ecee	-0.12590382
165	0x3d4286ad	0.047491718
166	0xbe341ed4	-0.17589885
167	0x3e12ffce	0.14355394
168	0xbe6ee44a	-0.23329273
169	0x3b97bca3	0.0046306415
170	0x3c9c274f	0.019061713
171	0xbe5c9063	-0.21539454
172	0x3d33a47d	0.04385804
173	0xbdb4fc68	-0.08837205
174	0xbdfc1583	-0.123087905
175	0xbdd48d56	-0.1037852
176	0x3db2b2f7	0.08725541
177	0x3d8fee88	0.07027918
178	0x3c0d3d4a	0.0086205695
179	0x3d18063b	0.037115317
180	0x3d4c6d47	0.049908902
181	0x3cff8a36	0.031193834
182	0x3deb556b	0.114909016
183	0x3d8926df	0.06696867
184	0xbe16f238	-0.14740837
185	0xbda03160	-0.078219175
186	0x3d283f0c	0.04107575
187	0x3dd701a4	0.1049836
188	0xbe559354	-0.20856982
189	0xbe130e5a	-0.14360943
190	0xbedbc97a	-0.42927152
191	0xbbcef6e2	-0.006316052
192	0x3e0bba11	0.13645197
193	0xbed8bf40	-0.42333412
194	0xbe85770b	-0.26067385
195	0xbcce81eb	-0.025208434
196	0x3c38a330	0.011269376
197	0xbd60a9ce	-0.05484944
198	0xbeaf496c	-0.34235704
199	0xbea3a747	-0.3196356
200	0xbe1b04d7	-0.15138565
201	0xbe4c62c6	-0.19959554
202	0xbe6625ce	-0.22475359
203	0xbea16099	-0.3151901
204	0x3e06b162	0.13153604
205	0xbe1a68f8	-0.15079105
206	0xbdad0c03	-0.08449557
207	0x3e9167b1	0.28399423
208	0x3e030808	0.12796032
209	0xbe2b02c9	-0.16700281
210	0x3e5e3e7a	0.2170352
211	0x3d57bdeb	0.052671354
212	0x3e316f0f	0.17327522
213	0xbdbb5efa	-0.09148975
214	0xbe37bdd6	-0.1794351
215	0xbe36f93a	-0.1786851
216	0xbd4f77e8	-0.05065146
217	0xbdc25395	-0.09488598
218	0x3d1f1047	0.038833883
219	0xbd734ca5	-0.059399266
220	0xbe4bd599	-0.199057
221	0xbeddd768	-0.43328404
222	0xbe582100	-0.21106339
223	0xbd579b2d	-0.05263822
224	0xbd9a96c0	-0.075482845
225	0xbea8f487	-0.3299906
226	0xbe8e5096	-0.27795857
227	0xbeae2dba	-0.34019262
228	0xbe60b763	-0.21944956
229	0xbe3e25f7	-0.1856917
230	0xbe1eb682	-0.15499309
231	0xbe9b7795	-0.3036467
232	0xbd565af6	-0.05233284
233	0xbebcfac5	-0.36910072
234	0x3e6c3237	0.2306603
235	0xbd0a96cc	-0.033835217
236	0xbe2c2656	-0.16811499
237	0x3e43c9fb	0.19120018
238	0x3e6502e8	0.2236439
239	0xbdb52143	-0.08844235
240	0x3e634ab5	0.22196467
241	0x3db617f0	0.088912845
242	0x3d40ae46	0.0470412
243	0x3ef5280b	0.47882113
244	0x3e488f03	0.19585805
245	0x3e8050ff	0.25061795
246	0x3eb34de9	0.35020378
247	0x3ec63f39	0.3872011
248	0x3ed83f4d	0.42235795
249	0x3f31b585	0.694176
250	0x3d817c73	0.06322565
251	0x3f02142a	0.5081202
252	0x3d2983b8	0.041385382
253	0x3cacba19	0.021084832
254	0xbdc2677a	-0.09492393
255	0x3d40b6a2	0.047049172

conv1.bias f4 [16]
0	0x3d7b506d	0.061355997
1	0xbdce6747	-0.10078292
2	0xbb1e8a92	-0.002419148
3	0xbd848c3c	-0.0647206
4	0x3e0577ae	0.13033935
5	0xbe91b42e	-0.2845778
6	0xbc5be8f4	-0.01342224
7	0x3d5e6d4b	0.05430345
8	0xbe0b0cc9	-0.13579096
9	0x3e1349f8	0.14383686
10	0x3da01af9	0.078176446
11	0xbe32635f	-0.1742072
12	0xbe87e770	-0.2654376
13	0x3e01c726	0.12673625
14	0x3e0f4e7a	0.1399478
15	0xbdba5e68	-0.09100038

conv2.weight f4 [32, 16, 3, 3]
0	0xbcc9ab60	-0.02461785
1	0xbd918863	-0.07106092
2	0x3d667f78	0.056273907
3	0xbd0097e6	-0.03139486
4	0xbd1ce3be	-0.03830313
5	0x3d01e06e	0.031708173
6	0x3d954223	0.07288005
7	0x3d1dfac6	0.038569234
8	0x3cc4e61b	0.024035504
9	0x3da37584	0.07981399
10	0x3b684700	0.003544271
11	0x3c533616	0.012891313
12	0x3c03e44e	0.008050038
13	0xbd55e148	-0.052216798
14	0x3c7ad1e0	0.015308827
15	0xbcf93c60	-0.030424297
16	0x3d4587b8	0.048225135
17	0xbd6b7180	-0.05748129
18	0xbd8b8074	-0.0681161
19	0xbc83e61b	-0.016100934
20	0x3d7d90ab	0.061905544
21	0xbd81ab7e	-0.06331538
22	0xbcd99086	-0.026558172
23	0xbbd13a16	-0.006385098
24	0xbd154610	-0.03644377
25	0x3d214088	0.039368182
26	0x3d95149c	0.072793216
27	0x3d544238	0.051820964
28	0xbf89a619	-1.0753814
29	0xbd85fea3	-0.06542709
30	0xbd9ce022	-0.076599374
31	0xbf9469a9	-1.1594745
32	0xbcf73a35	-0.030179122
33	0x3f9219d3	1.1414131
34	0x3e5911a3	0.21198134
35	0xbdb87fc8	-0.09008747
36	0x3cc5f886	0.024166357
37	0xbd35419e	-0.04425203
38	0xbbf60c40	-0.0075087845
39	0xbcf6b4ed	-0.030115569
40	0x3d51a9c6	0.0511873
41	0xbd9bc268	-0.076054394
42	0xbd055f45	-0.03256156
43	0x3c91c8c0	0.01779592
44	0xbcc05466	-0.023477744
45	0xbe672005	-0.22570808
46	0x3e374f3f	0.17901324
47	0xbd4b95e3	-0.04970349
48	0xbe70f3ab	-0.23530452
49	0x3e07ac77	0.13249384
50	0xbdd9cc68	-0.106346905
51	0xbe856db1	-0.2606025
52	0x3e15af3e	0.14617631
53	0xbd5cd287	-0.053911712
54	0x3d3fd9ca	0.04683856
55	0xbca7eeb2	-0.020499561
56	0x3d90f8f0	0.07078731
57	0x3d2d5ba9	0.042323742
58	0xbd0792e2	-0.033099063
59	0xbd4ca3be	-0.049960844
60	0x3c2661da	0.010155166
61	0xbda17226	-0.078831
62	0xbd377642	-0.044790514
63	0x3cd12286	0.025529157
64	0x3d14b00b	0.0363007
65	0x3d1a78f3	0.037713002
66	0xbd8ea1be	-0.069644436
67	0x3c397eb3	0.011321711
68	0xbda093dd	-0.07840703
69	0xbf057e5a	-0.5214592
70	0xbf6ced50	-0.9254961
71	0xbd26fbc2	-0.04076744
72	0x3d439d90	0.047757685
73	0xbd73346a	-0.059376158
74	0xbe45e3f7	-0.19325243
75	0xbdcf0b2c	-0.10109553
76	0xbed5b494	-0.41739333
77	0xbd8e8d82	-0.06960584
78	0xbd2b856a	-0.04187528
79	0xbef81d01	-0.48459628
80	0xbd8f63a0	-0.07001424
81	0xbe077d80	-0.13231468
82	0xbc595626	-0.013265168
83	0x3ac5c695	0.0015089089
84	0xbe7ed59f	-0.24886177
85	0xbb2c41df	-0.002628438
86	0xbb8fbf09	-0.004386787
87	0xbe1cdb6d	-0.1531808
88	0xbcffaddf	-0.031210838
89	0xbd422012	-0.047393866
90	0xbf08a664	-0.5337889
91	0xbf1b295e	-0.60609996
92	0xbd9dea6f	-0.0771073
93	0xc01668ad	-2.350139
94	0xbf638a1e	-0.88882625
95	0xbe11090e	-0.1416361
96	0xc02c4f44	-2.692338
97	0xbf4ffe91	-0.8124781
98	0xbe3d9d5c	-0.18517059
99	0xbcc651d5	-0.024208942
100	0xbd596463	-0.05307425
101	0xbda10704	-0.07862666
102	0xbd7bd724	-0.06148447
103	0xbd6463d5	-0.05575927
104	0x3d76d24b	0.060259145
105	0x3d489462	0.048969634
106	0xbd718112	-0.05896098
107	0xbd8e4d70	-0.06948364
108	0x3d95b55a	0.07309981
109	0x3c4cede4	0.012507889
110	0x3cc52bab	0.024068674
111	0xbc826cc9	-0.015921013
112	0xbd24743f	-0.040149923
113	0xbd7c5e7c	-0.061613545
114	0xbeec50c0	-0.46155357
115	0xbe06d46d	-0.13166972
116	0xbdf82d74	-0.121180445
117	0x3d244085	0.040100593
118	0x3ddecf00	0.10879326
119	0xbc191321	-0.00934294
120	0x3d546427	0.051853325
121	0xbd6a189d	-0.05715238
122	0xbd4f4ef6	-0.050612412
123	0xbd79b499	-0.060963247
124	0xbe0b926a	-0.13630071
125	0xbd3a6d52	-0.045514412
126	0x3f2daed0	0.6784487
127	0x3d5d3483	0.054005157
128	0xbdb50e0d	-0.088405706
129	0xbd9cd3f1	-0.07657612
130	0x3d7dc1bd	0.06195234
131	0xbe47403f	-0.19458102
132	0xbc4bd1ca	-0.012440154
133	0x3d903d4f	0.07042944
134	0xbe2d1ceb	-0.16905563
135	0xbe922822	-0.28546244
136	0x3dec2764	0.11530951
137	0x3d60d5e0	0.054891467
138	0xbe5f7324	-0.21821266
139	0x3de0a683	0.109692596
140	0xbcad61d4	-0.021164812
141	0xbe00fa06	-0.12595376
142	0x3e263702	0.16231921
143	0xbdccb6f3	-0.09995832
144	0xbc80b556	-0.015711468
145	0x3d25c0bb	0.040467005
146	0xbca57610	-0.020197898
147	0xbd8ad9bf	-0.06779813
148	0xbd4625eb	-0.048376005
149	0xbd3168b6	-0.04331275
150	0x3d0d8306	0.03454878
151	0x3d595013	0.05305488
152	0xbc1b602b	-0.009483377
153	0xbd96cff7	-0.07363885
154	0x3c41fe16	0.011840364
155	0x3cbedb66	0.023297977
156	0xbd00c0d3	-0.03143389
157	0x3ceb6510	0.028734714
158	0xbd0b6ebb	-0.034041148
159	0x3ce5d0e0	0.0280537
160	0x3d743846	0.05962398
161	0x3d2a3afe	0.041560166
162	0xbc010776	-0.007875314
163	0x3da3eca0	0.08004117
164	0xbbf01e96	-0.007327865
165	0xbd9839dc	-0.07432911
166	0x3d755a9e	0.059900872
167	0x3d9eb226	0.07748823
168	0x3d1bc57e	0.03803014
169	0x3d9591d8	0.07303208
170	0x3d385b26	0.0450088
171	0x3cd69d35	0.026198009
172	0x3d45a1f0	0.04825014
173	0xbd831a83	-0.06401541
174	0xbbf5cd98	-0.0075013153
175	0xbd2caef8	-0.04215905
176	0x3c8613b8	0.016366825
177	0xbda69d4e	-0.08135472
178	0x3ba16e96	0.004926513
179	0x3d0589ce	0.032602124
180	0xbcfdab7b	-0.030965557
181	0xbd09ab83	-0.033610832
182	0xbd5d5f9b	-0.054046255
183	0x3c83ecd5	0.016104141
184	0xbd8f41fc	-0.069950074
185	0xbc8c1f66	-0.017104816
186	0x3b97e26b	0.0046351454
187	0x3cc2c5c6	0.023775946
188	0xbd928448	-0.07154137
189	0x3c2a1ff3	0.010383594
190	0xbd206c6b	-0.039165895
191	0xbc828921	-0.015934529
192	0xbd89b60a	-0.06724174
193	0xbd934ce7	-0.07192402
194	0x3ba83eb6	0.005134429
195	0x3bfed5c0	0.007776946
196	0x3d85884a	0.06520136
197	0x3d9403aa	0.07227261
198	0x3d5f719d	0.05455171
199	0x3cd496dc	0.025950842
200	0x3d48cd1f	0.049023744
201	0x3cefa3ca	0.029252905
202	0xbdabf916	-0.08397119
203	0x3d5e3183	0.054246437
204	0x3b7bf3db	0.003844491
205	0xbcddb353	-0.027063048
206	0xbcff0b4a	-0.031133313
207	0x3d882207	0.06647115
208	0x3d6e30b8	0.05815193
209	0xbbfda716	-0.0077408655
210	0xbd1a86e2	-0.03772629
211	0xbd524ef6	-0.051344834
212	0x3d2a0931	0.04151267
213	0xbd4effd0	-0.05053693
214	0xbd6249a0	-0.055245996
215	0xbd4cd67e	-0.050009243
216	0xbb55fee3	-0.0032653145
217	0x3d176a50	0.036966622
218	0xbc1859fc	-0.009298798
219	0x3c99ac12	0.018758807
220	0xbd92eeb8	-0.07174438
221	0xbd85bb2f	-0.06529843
222	0xbd7c92eb	-0.06166355
223	0xbd6de3e8	-0.058078676
224	0xbd2ba0fb	-0.04190157
225	0xbd6875fb	-0.05675314
226	0xbd09652c	-0.03354375
227	0xbd6c9ab8	-0.05776474
228	0x3c984548	0.018587723
229	0xbb874f1c	-0.0041293036
230	0xbafe2bbf	-0.00193917
231	0x3ceecc94	0.029150285
232	0xbda66b5c	-0.08125946
233	0xbd1ea7e9	-0.03873435
234	0xbc851b7d	-0.016248459
235	0xbdbc2852	-0.09187378
236	0x3cf6049c	0.030031495
237	0xbd9191a9	-0.071078606
238	0x3d3eb5ac	0.046559975
239	0x3d92f9a9	0.07176525
240	0x3c0a3cbd	0.008437333
241	0xbd4f97c7	-0.050681856
242	0x3d43154c	0.047627732
243	0xbd796444	-0.060886636
244	0xbb1592cc	-0.0022823093
245	0x3d3bb160	0.045823455
246	0x3d933284	0.071873695
247	0xb8fd4b21	-0.00012077974
248	0xbc50f1dd	-0.012752977
249	0xbc5bcf54	-0.01341613
250	0xbdb216ab	-0.0869573
251	0x3c09e684	0.008416776
252	0xbd94d7af	-0.07267701
253	0x3a855887	0.0010173478
254	0xbcd92eef	-0.026511637
255	0x3d3e44a1	0.04645217

conv2.bias f4 [32]
0	0xbd7b148c	-0.061298892
1	0xbd592f1d	-0.053023446
2	0xbddfe86d	-0.109330036
3	0xbccf9b2a	-0.025342543
4	0xbdc8587e	-0.097825035
5	0x3c925b5f	0.017865835
6	0xbb9ef3df	-0.004850849
7	0xbd0ea1c9	-0.03482226
8	0x3d6c4cb4	0.057690337
9	0xbc613e12	-0.013747709
10	0xbdcee85a	-0.10102911
11	0x3dc8ae11	0.097988255
12	0xbd2244d9	-0.03961644
13	0xbc1a16d2	-0.009404855
14	0x3a252a0c	0.0006300516
15	0xbd54393e	-0.051812403
16	0xbdcdf720	-0.10056901
17	0xbba4f2a1	-0.0050338064
18	0xbcbfd2c8	-0.023415938
19	0xbb89ed08	-0.0042091645
20	0xbd70e1ea	-0.0588092
21	0xbdb8e64b	-0.090283
22	0xbb5fdd18	-0.0034158882
23	0x3c433b8a	0.011916051
24	0xbd86a811	-0.06575025
25	0xbdc7a565	-0.097483434
26	0xbcf4b311	-0.029870542
27	0x3e02ac99	0.12761153
28	0x3d89ba84	0.06725028
29	0x3bbd77b6	0.005782093
30	0x3cbcaafb	0.023030749
31	0xbd2ec12c	-0.04266469

fc1.weight f4 [64, 32]
0	0xbe0edbca	-0.1395103
1	0xbbc333c4	-0.0059570987
2	0xbd777021	-0.06040967
3	0xbcc4a8e6	-0.024006318
4	0xbd8cd25c	-0.0687606
5	0x3e075288	0.13215077
6	0xbe13c5a6	-0.14430866
7	0xbdd99d35	-0.10625688
8	0xbd60d4f7	-0.0548906
9	0x3e17a8fd	0.14810558
10	0xbd142b6b	-0.03617422
11	0x3d93bc12	0.07213606
12	0x3db17fcf	0.08666956
13	0x3e1af019	0.15130652
14	0xbd265e0f	-0.040617045
15	0x3d074316	0.033022963
16	0xbdb0b3d2	-0.08628048
17	0xbc5c26cc	-0.013436984
18	0xbe1b2153	-0.15149431
19	0xbe13b385	-0.1442395
20	0x3d44f182	0.048081882
21	0xbe0abc3a	-0.13548365
22	0x3dbd38a6	0.092393205
23	0x3e05caff	0.13065718
24	0x3d7e113a	0.062028147
25	0x3d8a972c	0.06767115
26	0xbe247720	-0.16061068
27	0xbda76b82	-0.08174802
28	0xbe02b399	-0.12763824
29	0xbe2ba562	-0.16762307
30	0x3d99e940	0.07515192
31	0x3d25cb7d	0.040477265
32	0xbd70272b	-0.058631103
33	0xbd3c0273	-0.045900773
34	0xbedf10b7	-0.4356744
35	0xbe119de2	-0.14220384
36	0xbeb7e1b5	-0.35914388
37	0x3e16a87d	0.1471271
38	0x3d64d402	0.05586625
39	0x3df6aa71	0.12044228
40	0x3ede3e45	0.43406883
41	0xbe974191	-0.2954221
42	0xb8de5c9d	-0.000106030355
43	0xbea61f73	-0.3244587
44	0x3f199a4b	0.6000106
45	0x3b470762	0.003036939
46	0x3bfac73f	0.0076531465
47	0xbef55fd0	-0.47924662
48	0x3dd1dc0b	0.10247048
49	0xbe45d142	-0.19318107
50	0x3dc6a1d1	0.09698833
51	0xbd0562e1	-0.032565
52	0x3dde6318	0.108587444
53	0xbcf85193	-0.030312335
54	0x3e875aea	0.2643655
55	0xbea5006c	-0.32226884
56	0x3e278b40	0.16361713
57	0x3e346b2b	0.17619006
58	0xbbf1cc38	-0.007379081
59	0xbd4a38ee	-0.0493707
60	0x3e283a12	0.16428402
61	0xbe8271c7	-0.2547743
62	0xbe3db043	-0.1852427
63	0xbdf07e07	-0.11742788
64	0x3d49de48	0.04928425
65	0x3d31d0c6	0.043411992
66	0xbde39d74	-0.11114016
67	0x3d0fa1aa	0.035066284
68	0xbcbb4c12	-0.022863422
69	0x3e06d41d	0.13166852
70	0xbd1fbe8c	-0.03900008
71	0x3e1df97f	0.15427206
72	0x3e1d4681	0.15358926
73	0xbd701049	-0.05860928
74	0x3cf2fea8	0.029662445
75	0xbd45eeb8	-0.048323363
76	0x3e10f48e	0.1415579
77	0x3dad946c	0.08475575
78	0x39fe0fae	0.00048458338
79	0x3ddaf1e1	0.10690666
80	0xbe11594d	-0.14194222
81	0xbd392b39	-0.045207236
82	0x3d13ce0e	0.03608518
83	0xbe2b7fd1	-0.16747977
84	0x3e1e37e5	0.1545101
85	0x3c6df4fc	0.014523741
86	0x3e1feb72	0.15617159
87	0xbd52bdd7	-0.051450577
88	0x3c2c736a	0.010525564
89	0xbd47b405	-0.048755664
90	0xbd946f00	-0.07247734
91	0xbd8627de	-0.06550573
92	0x3dfa643c	0.122261494
93	0x3e22a550	0.15883374
94	0x3d505c66	0.050869368
95	0x3dca292b	0.098711334
96	0x3e358279	0.17725553
97	0x3bff4ebe	0.007791369
98	0x3d954085	0.07287697
99	0x3d903a97	0.07042425
100	0x3d69f01a	0.057113744
101	0xbe13ad79	-0.14421643
102	0xbdb99124	-0.090608865
103	0xbc031a1c	-0.00800183
104	0xbe972549	-0.29520634
105	0xbd9ed147	-0.0775476
106	0xbf0205b0	-0.5078993
107	0x3ed37e43	0.41307268
108	0xbf1c7530	-0.61116314
109	0xbe08b1b1	-0.13349034
110	0x3d2a77d8	0.0416182
111	0x3e9d7704	0.30754864
112	0x3e0ef4f5	0.13960631
113	0x3eed16dd	0.46306506
114	0xbe406df6	-0.18791947
115	0xbdf4bd21	-0.11950136
116	0xbec69256	-0.3878352
117	0xbc557534	-0.013028432
118	0xbeb8e153	-0.3610941
119	0x3e9a2b56	0.30111188
120	0xbf029c33	-0.5101959
121	0x3dc65fbc	0.09686229
122	0x3de686a9	0.11256153
123	0x3e8e0272	0.2773624
124	0xbccb6682	-0.024829153
125	0x3ec6d6aa	0.3883565
126	0x3e0f2e30	0.13982463
127	0x3d968dde	0.07351278
128	0xbe165941	-0.14682485
129	0xbca1b31c	-0.019738726
130	0x3bcccad6	0.006249766
131	0x3e11dbd8	0.1424402
132	0x3d8cc495	0.068734325
133	0x3e1a88fe	0.15091321
134	0x3e0a38c0	0.13498211
135	0xbd961ff8	-0.07330316
136	0x3ce50cd3	0.027960217
137	0x3e30780c	0.17233294
138	0x3d769d26	0.060208462
139	0x3df8645b	0.12128516
140	0x3d8e08e3	0.06935289
141	0xbdadda66	-0.08488922
142	0x3d1c2a33	0.03812618
143	0xbe0c5ffc	-0.1370849
144	0x3e216189	0.15759863
145	0x3bf1e019	0.007381451
146	0x3dfc0ca5	0.12307099
147	0xbdc8b71a	-0.09800549
148	0xbe1f6888	-0.1556722
149	0x3c9aa3f5	0.018877009
150	0xbc40d9b7	-0.011770657
151	0xbd56fcee	-0.052487306
152	0x3db5f629	0.08884842
153	0xbdc70a52	-0.09718765
154	0x3e2f2193	0.17102651
155	0xbe2111c6	-0.15729436
156	0x3d297e7d	0.041380394
157	0xbdc98be9	-0.09841139
158	0x3d1c262b	0.038122337
159	0x3e2f1f68	0.17101824
160	0xbd0f131f	-0.034930345
161	0x3d29a7ad	0.041419674
162	0xbd4da3e7	-0.050205138
163	0xbdd8f5c8	-0.10593754
164	0xbe1fc39b	-0.15601961
165	0x3db08abf	0.08620214
166	0xbcb157cc	-0.02164831
167	0x3d37494d	0.04474764
168	0xbe44ae98	-0.19207227
169	0xbe20664a	-0.1566402
170	0xbe2c712e	-0.1684005
171	0xbde7be83	-0.11315634
172	0xbcfe773a	-0.031062711
173	0xbced63bf	-0.028978227
174	0x3d752243	0.059847128
175	0xbde26607	-0.110546164
176	0x3e3016c0	0.17196178
177	0xbdcde4e1	-0.10053421
178	0xbe40a6ab	-0.18813579
179	0x3dc1e56a	0.094675854
180	0xbe13f8f9	-0.14450444
181	0x3c10d0f1	0.008838878
182	0xbd648291	-0.05578858
183	0xbd485ae6	-0.048914813
184	0xbc22c45e	-0.009934513
185	0xbe3d7f51	-0.18505599
186	0x3e0dd8a6	0.13852176
187	0xbe0677e3	-0.1313167
188	0x3d97d661	0.074139364
189	0xbe154ab2	-0.14579275
190	0xbd8fa518	-0.07013911
191	0xbc51397d	-0.012770054
192	0xbdc7eba3	-0.09761741
193	0xbd9cd884	-0.076584846
194	0xbe34e9a3	-0.1766725
195	0xbe18bfe4	-0.1491695
196	0xbcda3975	-0.026638726
197	0xbda21b67	-0.07915383
198	0xbd0504e0	-0.032475352
199	0x3caeb519	0.021326588
200	0xbd483a16	-0.04888352
201	0xbe3c8a13	-0.18412046
202	0xbd85269a	-0.06501503
203	0x3d3462c4	0.044039503
204	0x3d824c45	0.063622035
205	0x3d91d096	0.07119863
206	0x3a90f6a4	0.0011059833
207	0x3dbee56f	0.09321105
208	0xbdf7bf3f	-0.12097024
209	0xbe265ac7	-0.16245566
210	0xbd410ebe	-0.0471332
211	0xbccadd82	-0.024763826
212	0x3dcdd92b	0.10051187
213	0xbdd0c8b0	-0.10194528
214	0xbe1a0ebc	-0.15044683
215	0xbcda5d75	-0.026655892
216	0x3d3821f8	0.04495427
217	0xbe332710	-0.1749537
218	0xbdc7fb97	-0.09764784
219	0xbe2119b2	-0.15732458
220	0x3ca445c6	0.020052802
221	0xbbc78335	-0.006088639
222	0xbe3d0a14	-0.18460876
223	0xbe03c5ba	-0.12868395
224	0x3c05ee04	0.008174423
225	0xbd3fdfa8	-0.046844155
226	0xbe0c032a	-0.13673082
227	0xbd5b6a2d	-0.053568054
228	0xbe263eb5	-0.16234858
229	0xbca55be0	-0.020185411
230	0xbca8cc50	-0.020605236
231	0x3c17d1dc	0.009266343
232	0x3c76002b	0.0150146885
233	0xbcfc402c	-0.030792318
234	0x3e1075f4	0.14107496
235	0xbd819f46	-0.06329207
236	0x3da39c1f	0.07988762
237	0x3d88b00a	0.06674202
238	0xbcb180c2	-0.021667842
239	0xbe04a87a	-0.12954894
240	0xbe188737	-0.1489533
241	0x3d486df7	0.048932996
242	0x3d5d604a	0.054046907
243	0x3ddb942c	0.10721621
244	0xbda04132	-0.07824935
245	0x3e1226e4	0.14272648
246	0x3e34ff1f	0.17675446
247	0xbce65531	-0.028116794
248	0xbd8d1553	-0.06888833
249	0xbd637074	-0.055527166
250	0xbe1d609e	-0.15368888
251	0x3dd0b604	0.10190967
252	0x3c9dd310	0.019265682
253	0x3da6cb65	0.08144263
254	0x3de89c66	0.11357956
255	0xbd99bfaf	-0.07507264

fc1.bias f4 [64]
0	0xbd982974	-0.074297816
1	0x3e17d076	0.14825615
2	0xbe2d2629	-0.16909088
3	0x3d9b5b5d	0.075857855
4	0xbd55cd01	-0.05219746
5	0x3d9ddded	0.077083446
6	0xbcba7fab	-0.022765955
7	0xbd8752f0	-0.06607616
8	0xbd95aa53	-0.073078774
9	0xbd86910a	-0.06570633
10	0x3e826f13	0.25475368
11	0xbbdac804	-0.0066766758
12	0xbe2b357d	-0.16719623
13	0xbd2a559f	-0.04158556
14	0x3d9453b3	0.07242527
15	0x3e2673e2	0.16255143
16	0xbe18bc96	-0.1491569
17	0x3dcde622	0.1005366
18	0x3e1c70fc	0.15277475
19	0x3cfc5112	0.030800376
20	0xbd3d6dea	-0.0462474
21	0xbe21c132	-0.15796354
22	0xbe098aeb	-0.13431899
23	0xbd5bc5d5	-0.053655464
24	0xbe168594	-0.14699394
25	0x3da6837d	0.08130548
26	0x3d9f1672	0.07767953
27	0xbe184e0a	-0.1487352
28	0x3ea62c9a	0.32455903
29	0x3c827d23	0.01592881
30	0x3e38ae14	0.18035156
31	0xbdb94776	-0.09046833
32	0x3e13013f	0.14355944
33	0x3e1c78a7	0.152804
34	0xbe209fa0	-0.15685892
35	0xbd923688	-0.07139307
36	0xbe02c435	-0.1277016
37	0x3d9c5b61	0.07634617
38	0xbdf53406	-0.11972813
39	0xbda7562f	-0.08170735
40	0x3cc45678	0.023967013
41	0x3e1d475f	0.15359257
42	0x3db9a7fe	0.09065245
43	0x3e28d4fd	0.16487499
44	0x3db62e77	0.08895581
45	0xbd187703	-0.037222873
46	0x3d886bb2	0.06661166
47	0x3e680700	0.2265892
48	0x3e4863d8	0.19569337
49	0xbe33e01c	-0.1756596
50	0x3e83d092	0.25745064
51	0xbd5efada	-0.05443845
52	0xbd77e812	-0.060524054
53	0xbe2170ef	-0.15765737
54	0x3d250784	0.04029037
55	0x3e0461d8	0.1292795
56	0x3e1beff5	0.15228255
57	0xbdc95fc9	-0.09832723
58	0x3e2adb7a	0.16685286
59	0xbe2971ee	-0.16547367
60	0x3df515c3	0.11967041
61	0x3e4ee3f9	0.20204152
62	0xbe218838	-0.1577462
63	0xbe0f3ddf	-0.13988446

fc2.weight f4 [128, 64]
0	0x3cc623d0	0.024186999
1	0xbd996d5f	-0.07491564
2	0x3dfa6c00	0.122276306
3	0x3ebdcd34	0.3707062
4	0xbde8a79b	-0.11360093
5	0x3c4d2988	0.012522109
6	0xbdebc094	-0.11511341
7	0xbd81abf8	-0.063316286
8	0x3c9f0dd0	0.019415766
9	0x3d13793c	0.03600429
10	0xbf314826	-0.69250715
11	0xbcf36a80	-0.02971387
12	0xbdcf895e	-0.101336226
13	0xbde47ac5	-0.11156229
14	0xbeae0645	-0.33989158
15	0xbed4999b	-0.41523442
16	0x3cdd6de0	0.027029932
17	0x3f01fc15	0.5077527
18	0xbfde23d0	-1.7354679
19	0xbf1641d1	-0.5869418
20	0xbd574299	-0.052553747
21	0xbdc1ac0e	-0.09456645
22	0x3de8ea88	0.11372858
23	0x3df14d6c	0.11782345
24	0xbdf95ab2	-0.12175502
25	0x3e3d197f	0.18466757
26	0x3ea53fa2	0.3227511
27	0xbd18f53c	-0.03734325
28	0xbeadd2f9	-0.33950022
29	0xbf9f9e80	-1.2470245
30	0xbf020198	-0.5078368
31	0xbdce4b24	-0.10072926
32	0xbe2fb8ca	-0.17160335
33	0xbf4b2dac	-0.79366565
34	0x3cae1dc0	0.02125442
35	0x3dfde9cc	0.12398109
36	0xbdcb19e2	-0.09917046
37	0x3ed983a0	0.42483234
38	0x3de52e9e	0.11190532
39	0xbc7cbdba	-0.015426094
40	0xbeb04ede	-0.3443517
41	0x3e18d718	0.14925802
42	0xbf1e476a	-0.6182772
43	0xbf218636	-0.63095415
44	0x3dd88814	0.1057283
45	0x3d6c26d0	0.057654202
46	0x3ec4c68a	0.38432723
47	0xbf054e8d	-0.52072984
48	0xbded3b80	-0.11583614
49	0xbd9c66c2	-0.07636787
50	0xbd7d3fc6	-0.061828397
51	0xbde2c2d6	-0.11072318
52	0x3d953ff4	0.07287589
53	0xbdfde0e2	-0.123964086
54	0xbef7685d	-0.4832181
55	0xbf98e5b3	-1.1945099
56	0xbfbaf5f6	-1.4606311
57	0x3de7d496	0.113198444
58	0xbe6476dd	-0.22310968
59	0xbdbea238	-0.093082845
60	0x3e969b33	0.29415283
61	0xbf3c848c	-0.7363975
62	0xbdba0d50	-0.090845704
63	0x3b1b4300	0.0023691058
64	0xbc9a85c8	-0.01886262
65	0xbdb04a92	-0.08607973
66	0x3db8ce08	0.09023672
67	0x3c3fa163	0.011696192
68	0xbd7d9d60	-0.061917663
69	0x3d833e04	0.06408313
70	0x3d994dc4	0.07485536
71	0x3dcfb040	0.10141039
72	0xbc78e880	-0.015192151
73	0xbd1accac	-0.037792847
74	0x3c626310	0.013817564
75	0xbc32a490	-0.010903493
76	0x3d851bd6	0.0649945
77	0xbd7059e0	-0.05867946
78	0x3d80a3d0	0.06281245
79	0x3deda5a2	0.116038576
80	0x3d4e4ec4	0.050368086
81	0x3d88905a	0.06668158
82	0xbda84fb4	-0.08218327
83	0x3d3a7d68	0.045529753
84	0xbdd5933a	-0.10428472
85	0xbb866a80	-0.0041020513
86	0xbc99df80	-0.01878333
87	0x3dfcd86e	0.12345968
88	0xbd1adc7c	-0.037807927
89	0x3dadb944	0.08482602
90	0x3d66c797	0.056342687
91	0xba919e00	-0.001110971
92	0x3d8c0f88	0.068389
93	0x3dfbf684	0.123028785
94	0xbd8ce7d4	-0.06880155
95	0xbde93834	-0.11387673
96	0x3c972e9a	0.018454839
97	0x3d84ade2	0.06478478
98	0x3c8c4760	0.017123878
99	0x3deb2778	0.114821374
100	0xbca12350	-0.019670159
101	0x3b9321d1	0.004490115
102	0xbdc57396	-0.09641187
103	0x3db6c912	0.0892507
104	0xbd966c50	-0.07344878
105	0xbd0940c3	-0.033509027
106	0xbda9a1e2	-0.0828283
107	0x3dafa450	0.08576262
108	0xbdba1489	-0.09085948
109	0xbdd7fa94	-0.10545841
110	0xbda56eb2	-0.08077754
111	0x39739000	0.0002322793
112	0xbdafb875	-0.08580104
113	0x3bdf4aa0	0.006814316
114	0xbd120ebf	-0.035658594
115	0x3dc77da0	0.09740758
116	0x3d6bbb58	0.05755171
117	0x3d43edd4	0.047834232
118	0xbd85633a	-0.065130666
119	0x3d903460	0.0704124
120	0x3da13990	0.07872307
121	0xbbdf09a0	-0.0068065673
122	0x3a390100	0.0007057339
123	0xbc98d108	-0.018654361
124	0xbcac3653	-0.021021998
125	0xbdbba69e	-0.09162639
126	0x3d7debd0	0.061992466
127	0x3deba0f4	0.11505309
128	0x3d8072aa	0.062718704
129	0x3ba75db8	0.0051076077
130	0x3de80e98	0.113309085
131	0x3eab3b8f	0.33443877
132	0x3c062ca0	0.00818935
133	0x3d99fcbb	0.07518908
134	0x3d83fd57	0.06444805
135	0x3cd17858	0.02557008
136	0xbcf737e8	-0.030178025
137	0xbd978518	-0.073984325
138	0x3bd995b3	0.00664016
139	0x3d192178	0.037385434
140	0xbdc7b708	-0.09751707
141	0xbda7265e	-0.08161615
142	0xbed38a00	-0.41316223
143	0x3e17e456	0.14833197
144	0x3da4200c	0.08013925
145	0x3ef26131	0.47339776
146	0xbfc1b17e	-1.5132291
147	0xbf5c4a09	-0.8605047
148	0xbdd1443d	-0.102180935
149	0x3c418440	0.011811316
150	0xbdd10760	-0.10206485
151	0xbde6dbc6	-0.11272387
152	0x3bbfc900	0.0058528185
153	0x3e568d54	0.2095235
154	0x3d953505	0.07285503
155	0xbde650dc	-0.112458915
156	0x3db9c03f	0.09069871
157	0xbf9d57c3	-1.2292408
158	0xbe21dceb	-0.1580693
159	0x3dc0c11b	0.09411832
160	0xbd9b5c76	-0.07585995
161	0xbe9166a3	-0.28398618
162	0x3d0cd338	0.03438112
163	0x3d9e3298	0.07724494
164	0xbde06768	-0.10957223
165	0x3ea4f0ae	0.32214874
166	0x3d540fb0	0.051772773
167	0xbc8bd381	-0.017068626
168	0xbdda018c	-0.10644826
169	0x3e9b755d	0.3036298
170	0xbf47f75c	-0.78111815
171	0xbf0d2a27	-0.55142444
172	0x3e8ff4f9	0.28116587
173	0xbd8bd4ba	-0.06827684
174	0x3e85b72a	0.26116306
175	0xbe2cf7b6	-0.16891369
176	0x3c158b0e	0.0091273915
177	0x3da35ac0	0.079762936
178	0x3e931c51	0.2873254
179	0x3d161410	0.036640227
180	0x3daa1898	0.08305472
181	0xbd31f400	-0.043445587
182	0xbe49946a	-0.19685522
183	0xbf583d4b	-0.84468526
184	0xbf8f5eff	-1.1200866
185	0xbda6c3b4	-0.08142796
186	0xbd95ae1d	-0.073086
187	0xbce9a8e8	-0.028522924
188	0x3de47ecf	0.11156999
189	0xbd3e69f1	-0.046487752
190	0x38e73800	0.00011025369
191	0xbd209cf8	-0.039212197
192	0x3df3deb8	0.119077146
193	0x3d5cc7bf	0.05390143
194	0x3d060598	0.03272018
195	0x3b967776	0.0045918776
196	0xbd578ad8	-0.052622646
197	0xbd09b958	-0.033624023
198	0x3d9793e0	0.07401252
199	0x3ddbf676	0.10740368
200	0xbcd270d8	-0.025688574
201	0xbde071b2	-0.10959186
202	0xbd2170ab	-0.03941409
203	0x3d984b38	0.07436222
204	0x3bc02920	0.0058642775
205	0xbdf6d24a	-0.12051828
206	0x39df6291	0.00042607312
207	0xbdbd5887	-0.09245401
208	0x3d525248	0.051348
209	0x3d93859d	0.07203219
210	0x3d546ccc	0.05186157
211	0xbd75a600	-0.059972763
212	0x3cea8470	0.028627604
213	0xbbe50400	-0.006989002
214	0x3ccb7d40	0.024839997
215	0xbd7d1458	-0.06178698
216	0xbdcfdb1c	-0.10149214
217	0xbddbe39f	-0.10736775
218	0xbc9db835	-0.019252876
219	0x3d8d459e	0.06898044
220	0xbe18919e	-0.14899299
221	0x3da2b7f2	0.07945241
222	0x3db4b5da	0.08823748
223	0xbdd4f768	-0.103987515
224	0xbde1c788	-0.11024386
225	0xbb54d5fb	-0.0032476175
226	0xbd986c38	-0.07442516
227	0x3cb3b268	0.021935657
228	0xbde7434c	-0.11292133
229	0xbd35f82f	-0.04442614
230	0x3de8861a	0.11353703
231	0x3dc070ce	0.09396516
232	0x3b712ddb	0.0036801014
233	0xbabd6877	-0.0014450689
234	0x3dc1eb9b	0.09468766
235	0xbe006600	-0.1253891
236	0x3d048715	0.032355387
237	0x3d2e98d4	0.042626217
238	0xbe209622	-0.15682271
239	0x3d08c078	0.033386678
240	0xbb9c360a	-0.004767184
241	0xbde20b44	-0.11037305
242	0xbdfc0157	-0.12304943
243	0x3c44c080	0.012008786
244	0x3c6a4340	0.01429826
245	0x3d079130	0.033097446
246	0x3d9ca8a6	0.07649355
247	0x3da1180e	0.07865916
248	0x3cc8e136	0.024521451
249	0x3c34f2d0	0.011044219
250	0xbcb2157d	-0.021738762
251	0x3dea3e92	0.114377156
252	0xbd06398a	-0.032769717
253	0xbde543c6	-0.111945674
254	0xbd781d70	-0.06057495
255	0xbdf9a5d4	-0.12189832

fc2.bias f4 [128]
0	0x3df832f2	0.12119092
1	0xbdf4b46c	-0.11948475
2	0x3df59cc2	0.1199279
3	0xbd942f57	-0.07235592
4	0xbde57d0e	-0.11205493
5	0x3d8f4965	0.06996421
6	0x3e1ba3bd	0.1519918
7	0xbdc35cf0	-0.09539211
8	0xbda19734	-0.07890168
9	0xbd110b35	-0.03541108
10	0xbd905fea	-0.07049544
11	0x3e62b356	0.22138724
12	0x3c144205	0.009048943
13	0x3cbdec8b	0.023184082
14	0xbdc779e2	-0.09740044
15	0xbd3b062f	-0.045660194
16	0x3c9c7885	0.019100437
17	0xbcf50b48	-0.029912606
18	0x3d6d8eb9	0.05799744
19	0x3ab37e6c	0.0013694293
20	0x3d6b4cd7	0.057446327
21	0x3db6cd2f	0.089258544
22	0x3caf19cf	0.021374611
23	0xbb8a8d62	-0.00422828
24	0x3d291f1b	0.04128943
25	0xbddab7dc	-0.106796
26	0xbd12adb4	-0.035810187
27	0xbdff4454	-0.124642044
28	0x3e12495a	0.14285794
29	0x3d57c942	0.05268217
30	0xbe070988	-0.1318723
31	0x3d9feed2	0.07809223
32	0x3e15d4d2	0.14631966
33	0x3e15952a	0.14607683
34	0x3e58f01d	0.21185346
35	0xbdf3e474	-0.11908808
36	0xbd5265ac	-0.051366493
37	0x3df56286	0.119816825
38	0x3e370b76	0.17875466
39	0x3d88dbaf	0.06682526
40	0x3e4839e7	0.19553338
41	0xbdca95ea	-0.09891875
42	0x3d56979b	0.052390676
43	0x3e412af8	0.18864048
44	0xbddbbc0a	-0.10729225
45	0x3e372077	0.17883478
46	0xbdbecec0	-0.09316778
47	0x3e85c70f	0.26128432
48	0xbde064d4	-0.109567314
49	0x3ac53000	0.0015044212
50	0xbd86a6e0	-0.06574798
51	0xbcedf6f8	-0.029048428
52	0xbd97493a	-0.07387014
53	0xbddcd23c	-0.107822865
54	0xbddc02e0	-0.10742736
55	0x3d083b34	0.033259585
56	0xbc6515b8	-0.013982229
57	0x3e47f2d3	0.19526224
58	0x3d27e9bc	0.04099439
59	0xbd998a47	-0.074970774
60	0x3dbd213b	0.09234854
61	0x3e9f3299	0.3109329
62	0xbdca4740	-0.09876871
63	0x3e75c0a9	0.23999275
64	0xbcf0de7d	-0.029402966
65	0xbc93ba63	-0.018033212
66	0xbe04f53d	-0.12984176
67	0x3dd774ff	0.10520362
68	0x3e05f1df	0.13080548
69	0x3e2ed59c	0.17073673
70	0x3e0a0311	0.13477732
71	0xbde1226a	-0.10992892
72	0x3e5483ac	0.20753354
73	0x3e25bb43	0.16184716
74	0xbd361f83	-0.044463646
75	0x3d390a94	0.045176104
76	0x3dd9af3e	0.10629128
77	0xbd2296b4	-0.039694503
78	0xbcc1781b	-0.023616841
79	0x3d243cb8	0.04009697
80	0x3e16eff5	0.14739974
81	0xbd30ad30	-0.043133914
82	0xbdd3d884	-0.103440315
83	0xbb9a6d66	-0.0047127483
84	0xbd7f082a	-0.062263645
85	0xbd0607dc	-0.03272234
86	0x3e20b1b4	0.15692788
87	0x3e65109b	0.22369616
88	0xbcfd6764	-0.03093309
89	0x3e23da98	0.16001356
90	0xbc9c52f9	-0.019082533
91	0xbd7d511c	-0.06184493
92	0x3e150a72	0.14554766
93	0xbdb38434	-0.0876545
94	0xbc1a82d0	-0.009430602
95	0x3b18711d	0.002326078
96	0x3c5a163a	0.013310963
97	0x3e8f0103	0.2793046
98	0x3e0d74aa	0.13814035
99	0xbd071b0a	-0.03298477
100	0xbdee9fd8	-0.116515815
101	0xbdb685dc	-0.089122504
102	0xbd263ef4	-0.04058738
103	0xbdb2242e	-0.08698307
104	0x3c5447b4	0.0129565485
105	0xbdfc771a	-0.12327404
106	0x3e8b2109	0.2717364
107	0xbd7294a8	-0.0592238
108	0x3e31fa6d	0.17380686
109	0x3d4f27c3	0.05057503
110	0x3e34fac7	0.17673789
111	0xbcef6521	-0.029223027
112	0x3df3d4a2	0.11905791
113	0x3daf6b00	0.085653305
114	0xbdbec25c	-0.09314415
115	0x3d72691e	0.05918228
116	0x3de775ff	0.11301803
117	0xbc988b4d	-0.018621111
118	0xbdb6395c	-0.08897659
119	0x3df82914	0.1211721
120	0xbd0eeac7	-0.03489187
121	0x3dd251c8	0.10269505
122	0xbdb90727	-0.09034567
123	0xbbb8eff7	-0.0056438404
124	0x3dc6fc01	0.09716035
125	0xbb15fc80	-0.0022886097
126	0x3d8b691b	0.06807157
127	0xbc965336	-0.018350225

fc3.weight f4 [4, 128]
0	0x3e25bee7	0.16186105
1	0xbdd4d4ae	-0.10392128
2	0x3e52d151	0.2058766
3	0xbe028037	-0.12744223
4	0x3bc82db5	0.0061089643
5	0xbddd8265	-0.108158864
6	0x3d1a6d50	0.037701905
7	0x3d92f67e	0.07175921
8	0x3c9c7b14	0.019101657
9	0xbd4c1d98	-0.04983291
10	0xbd0bbc61	-0.0341152
11	0xbd6da8ef	-0.058022436
12	0x3f97177c	1.1804042
13	0xbc9e6bba	-0.019338477
14	0xbdad726a	-0.084690884
15	0x3f42dd8f	0.7611932
16	0xbcead6c4	-0.028666861
17	0xbd77c88c	-0.06049399
18	0x3ecc6164	0.39918053
19	0x3c03d2e2	0.008045884
20	0x3d1f72a3	0.038927685
21	0x3e90badf	0.2826757
22	0xbcc174fe	-0.023615357
23	0x3f473cac	0.7782695
24	0x3c9db6af	0.01925215
25	0xbda470c6	-0.08029322
26	0x3caf1303	0.02137137
27	0xbda55295	-0.08072392
28	0x3e9bfd23	0.30466565
29	0xbe113987	-0.14182101
30	0x3ceec8fb	0.02914857
31	0x3f9d3670	1.2282238
32	0xbdb9e0b8	-0.09076065
33	0x3edac48e	0.42728084
34	0x3e0e0e27	0.13872586
35	0x3b3cbb8b	0.0028798308
36	0x3d50d2dd	0.050982345
37	0x3e5e2b3b	0.21696179
38	0xbe8f7d15	-0.28025118
39	0x3e434222	0.19068196
40	0xbdfc22d8	-0.123113334
41	0x3cd346e4	0.02579064
42	0x3cf9dd29	0.030500965
43	0x3da4b72f	0.08042752
44	0xbd833a44	-0.06407598
45	0xbe82f72d	-0.25579205
46	0xbd360a0e	-0.044443183
47	0xbe7085d9	-0.23488559
48	0xbd0a37d5	-0.03374465
49	0x3d1e0fd8	0.03858933
50	0xba284d25	-0.0006420187
51	0x3cffbf6a	0.031219203
52	0x3cadac33	0.021200275
53	0xbc032091	-0.00800337
54	0xbceb3bd8	-0.02871506
55	0x3d0125e7	0.031530287
56	0x3b082122	0.0020771702
57	0xbe3e53e9	-0.18586697
58	0x3ced83bc	0.02899348
59	0x3d889ac0	0.06670141
60	0x3d6f4235	0.05841275
61	0xbea9640f	-0.3308415
62	0x3c71b766	0.014753198
63	0xbc8d3b62	-0.01724023
64	0x3d223528	0.039601475
65	0xbd3beb91	-0.04587895
66	0x3cca5346	0.024697911
67	0xbd1d16ad	-0.038351703
68	0xbee2d714	-0.44304717
69	0xbd08911d	-0.033341516
70	0xbe625156	-0.2210134
71	0xbd018cf4	-0.031628564
72	0x3df14292	0.117802754
73	0x3e22a819	0.15884437
74	0x3da00d9e	0.07815097
75	0xbc8fcc3a	-0.017553438
76	0xbd946759	-0.072462745
77	0xbd24fb47	-0.0402787
78	0xbd4789f9	-0.048715565
79	0x3e370fa9	0.17877068
80	0xbe011d15	-0.1260875
81	0xbb6b450e	-0.0035899314
82	0xbd3ad0b1	-0.04560918
83	0xbcf47a46	-0.02984346
84	0xbb9d7307	-0.004804972
85	0xba9b476b	-0.0011846846
86	0x3e1a38e6	0.15060768
87	0xbe5af1d3	-0.21381311
88	0x401eb1eb	2.4796093
89	0xbe0faa60	-0.14029837
90	0x3d2c9f2b	0.042143982
91	0xbcac6199	-0.021042632
92	0x3e85e726	0.26152915
93	0xbd92ed4f	-0.07174169
94	0xbd3c8aa2	-0.046030648
95	0x3d8e4f4c	0.069487184
96	0x3e1afd2e	0.15135643
97	0xbf8da191	-1.1064931
98	0xbe3627ed	-0.17788668
99	0xbd330ac9	-0.043711457
100	0x3d9fac36	0.077965185
101	0xbd1c24ca	-0.038121022
102	0xbd836992	-0.0641662
103	0x3cd4d919	0.025982426
104	0xbcc759bd	-0.024334783
105	0xbca79c0e	-0.020460155
106	0xbe617604	-0.22017676
107	0xbdb3bf1b	-0.08776685
108	0x3dc8a398	0.09796828
109	0x3ebd0f78	0.36925864
110	0x3f323ac9	0.6962095
111	0xbd871c3f	-0.065971844
112	0xbdb179c3	-0.08665802
113	0x3da2fe19	0.079586215
114	0xbca61edc	-0.020278387
115	0xbebe6f3e	-0.37194246
116	0x3e9ec3ee	0.31008857
117	0xbdb13ca1	-0.08654142
118	0xbd374e20	-0.04475224
119	0xbe3232d9	-0.1740221
120	0x3d283b2c	0.041072056
121	0x3eba7099	0.3641403
122	0x3da833c9	0.08213002
123	0xbc6c3976	-0.014417997
124	0xbe2f4582	-0.17116359
125	0x3d7cd8cc	0.06173019
126	0x4003993a	2.0562272
127	0x3bf7697b	0.007550416
128	0x3f05007f	0.5195388
129	0xbd3ed70c	-0.046591803
130	0x3e53f9a9	0.20700707
131	0x3d9a8088	0.07544047
132	0x3c5ef5f8	0.013608448
133	0xbf861b46	-1.0477073
134	0x3f1b9346	0.60771596
135	0x3d6f7995	0.05846556
136	0x3d795c9e	0.060879342
137	0x3d123166	0.03569164
138	0x3c916161	0.01774663
139	0x3f06c53f	0.52644724
140	0xbf4444f1	-0.76667696
141	0xbfb326fb	-1.3996271
142	0xbd383271	-0.04496998
143	0xbe925d95	-0.28587022
144	0xbd6795fc	-0.05653952
145	0xbd86d46e	-0.065834865
146	0xbe96fd5e	-0.2949018
147	0xbd126f16	-0.03575047
148	0x3d0dff4c	0.0346673
149	0x3ea5723f	0.32313725
150	0xbca23d45	-0.019804606
151	0xbf42f19e	-0.7614993
152	0xbcb22e3b	-0.02175056
153	0xbcfeeedc	-0.031119756
154	0xbcc5f9ca	-0.02416696
155	0xbc2e294b	-0.010629962
156	0x3e843bee	0.25826973
157	0xbf8891f7	-1.0669545
158	0x3c975c2b	0.018476566
159	0xc01a3698	-2.4095821
160	0xbf709482	-0.93976605
161	0x3dbede2d	0.093197204
162	0x3e92b9ea	0.28657466
163	0x3da26293	0.07928958
164	0xbd3d972e	-0.046286754
165	0x3ef761c4	0.48316777
166	0xbf4de742	-0.80430996
167	0xbfbc497d	-1.4709927
168	0x3ec0a790	0.3762784
169	0x3d2659ad	0.040612865
170	0xbcab1b6f	-0.020887105
171	0x3ef93baf	0.48678347
172	0xb8e9eb75	-0.00011154163
173	0xbd3538ae	-0.044243507
174	0x3c61c1fc	0.01377916
175	0x3ef2a9d7	0.47395203
176	0x3d13fc05	0.036129016
177	0xbd084950	-0.03327304
178	0xbd2e5477	-0.04256102
179	0x3dabf5e3	0.083965085
180	0x3d8deb3d	0.06929634
181	0x3d7c5256	0.06160196
182	0xbd590249	-0.052980695
183	0xbf98b496	-1.193011
184	0xbda50272	-0.08057107
185	0x3ecdd685	0.40202728
186	0x3dabfd97	0.08397978
187	0xbd341f3a	-0.043975092
188	0xbfa1569a	-1.2604554
189	0x3eb90786	0.36138552
190	0x3d096fab	0.03355376
191	0x3ee6d5e3	0.45085058
192	0xbc9bb278	-0.019005999
193	0xbcc1e85c	-0.023670368
194	0xbd23aad3	-0.039957833
195	0x3e4771f9	0.19477071
196	0xbefd308f	-0.4945111
197	0x3f1e71af	0.6189222
198	0xbf4cf557	-0.8006186
199	0xbd1679b5	-0.036737163
200	0x3f091cdf	0.5355968
201	0x3e3fc483	0.18727307
202	0xbd5c73c6	-0.053821348
203	0x3b335274	0.0027362378
204	0x3e8622af	0.26198336
205	0xbc2b2fb1	-0.010448382
206	0x3c9cd8aa	0.019146282
207	0xbf93fa72	-1.1560805
208	0xbf898d62	-1.0746272
209	0xbd2fa305	-0.042880077
210	0x3da6aa14	0.081379086
211	0xbdc11aab	-0.09428915
212	0xbd2ec132	-0.042664714
213	0xbcafa2b1	-0.021439882
214	0x3f06a814	0.52600217
215	0x3da6409b	0.08117791
216	0xc009e214	-2.1544237
217	0xbf5a1f6f	-0.85204214
218	0x3bf79c7f	0.0075564976
219	0x3d8c5de6	0.06853847
220	0x3e31352f	0.17305444
221	0x3d8d9537	0.06913226
222	0xbd97aa93	-0.07405581
223	0xbd703805	-0.058647174
224	0xbfa1b19f	-1.2632331
225	0x3fc4e82f	1.5383357
226	0xbfb76192	-1.4326651
227	0xbd808920	-0.062761545
228	0xbd85ccfa	-0.06533237
229	0x3d32e094	0.043671206
230	0xbdb70a75	-0.089375414
231	0x3ca30a45	0.019902358
232	0xbd9f40f8	-0.07776064
233	0xbd90799f	-0.070544474
234	0x3db3a444	0.087715656
235	0xbd44e312	-0.048068114
236	0x3ee8a9dc	0.45442092
237	0xbfaa341b	-1.3297151
238	0xbf97e1fb	-1.1865839
239	0xbd530f1b	-0.051528078
240	0xbf58e853	-0.847295
241	0xbdf0a8df	-0.117509596
242	0xbd5bf9aa	-0.053704895
243	0xbf99e2b8	-1.2022314
244	0x3ea19c67	0.31564638
245	0xbd04be44	-0.032408014
246	0x3d9078e1	0.07054306
247	0xbf72d29a	-0.948526
248	0x3d9b4c6d	0.075829364
249	0x3dc6a830	0.09700048
250	0x3d7f70f5	0.062363584
251	0x3c19b09d	0.009380487
252	0xbfa42508	-1.2823801
253	0x3d1a0758	0.03760466
254	0xbfb9be6e	-1.451124
255	0x3d006a3c	0.031351313

fc3.bias f4 [4]
0	0xbec475a6	-0.3837101
1	0x3db29ca1	0.08721281
2	0x3c4b0600	0.012391567
3	0x3ea72041	0.32641795
