bgt60tr13c_driver/config/rsd.pth (torch, 98660 bytes, 8 tensors)

conv1.weight f4 [16, 3, 3, 3]
0.7200039 0.5643057 0.063502826 0.7232516 0.55029124 0.35208324 0.7036914 0.51509535
-0.018948575 0.30015662 0.4168728 0.15710735 0.119065516 0.23820546 0.19569714 0.21383902
0.2476969 0.021741737 -0.019538889 -0.21983917 -0.037150778 -0.001963795 -0.1988488 0.03246165
-0.09414117 -0.21680032 0.055049192 0.12297466 0.14072976 -0.13250855 -0.14667064 -0.16920838
0.124425635 0.11224058 -0.11731392 0.075445615 0.038682006 -0.08191994 0.006605093 -0.11610456
-0.05634598 0.07609578 0.02717672 -0.14321743 0.048430886 -0.0384034 -0.14137658 -0.17793408
0.008299348 -0.1416379 -0.1176413 0.046373785 0.011866827 -0.087129205 0.31787324 0.5373184
-0.074313685 0.22385319 0.48091146 0.047075115 0.36971524 0.5926734 -0.012864108 0.045822352
-0.06566409 -0.024541114 0.12037501 -0.1450889 -0.12659499 -0.17515936 0.21374446 -0.02172755
0.09418207 -0.18284887 -0.052332558 0.043077543 -0.26980105 -0.18755662 -0.19216958 -0.057858907
-0.1770503 0.36540863 0.59519815 -0.058897592 0.29469103 0.26589894 -0.061205268 0.3425163
0.47440264 -0.08318907 -0.19742157 -0.10523198 0.1462421 -0.18872775 0.0066270456 -0.020473668
-0.16426124 -0.019011946 0.13385919 0.063789874 -0.1196866 -0.038537342 -0.18778124 -0.16733073
-0.032541692 0.064330414 -0.048786175 -0.18891251 -1.7658702 -1.0347263 0.13284047 -1.7548553
-0.9224988 0.03427354 -5.22176 -0.7896493 0.05837229 -0.060911946 -0.026595393 -0.010281773
-0.3831954 -0.1444845 -0.10929112 -0.059753723 -0.24727614 -0.06986512 0.20587172 0.42962882
0.2628271 0.09965819 0.2843671 0.2427419 0.13905992 0.2943468 -0.0073472452 -0.34485698
0.17454451 0.20204479 -0.18493599 -0.049034853 0.08648899 -0.3671176 -0.07368451 -0.08685098
-0.64882106 -0.45399657 -0.26280046 -0.44240117 -0.5109192 -0.107098825 -0.73974997 -0.5664211
-0.22731213 0.22078118 0.2645542 0.38214332 0.006831503 0.39232713 0.2597172 0.18999767
0.2393597 0.0922337 0.1029529 0.041741665 0.13266276 0.14162612 -0.16345142 0.17827669
-0.04431597 -0.12893207 0.16797028 -0.030436112 0.031710483 0.028886344 -0.10351961 0.122040786
0.072974846 0.1550158 -0.053487383 -0.14121147 0.037694886 -0.051709298 9.93611e-05 -0.15652372
0.17259811 -0.101214804 -0.01738723 0.0048832623 -0.08360591 -1.1260704 -1.5356988 -0.25844216
-1.4463885 -1.2840161 -0.38333338 -1.1814667 -1.5668709 -0.42545006 -0.07822105 -0.22405219
0.30082378 0.09185452 -0.12851773 0.25658897 -0.15329213 0.016806597 -0.012722024 0.13767794
0.15478018 0.19698763 0.19811715 0.021247085 0.15685377 0.2819663 0.3547729 0.23074679
0.009017317 -0.023595031 -0.005847165 -0.44104367 -0.39646378 -0.5674161 -0.22879396 -0.33862606
-0.49271396 -0.09263238 -0.023625376 -0.33767506 -0.18871778 -0.024006967 0.10408594 -0.19285852
0.043307327 0.23845856 -0.26537448 -0.22506437 -0.22897202 0.22490367 0.045042586 0.2124784
0.008301464 0.18600181 0.030076778 0.16752775 -0.0943613 -0.072307356 0.17357467 -0.15245725
0.054410998 0.09565937 -0.016714139 0.16920067 -0.17899539 -0.027948758 -0.10126984 0.07582601
00000000: 2d52 383f 5776 103f c50d 823d 0427 393f
00000010: e3df 0c3f 4144 b43e 1f25 343f 4add 033f
00000020: 0b3a 9bbc 21ae 993e 5a70 d53e c0e0 203e
00000030: 9fd8 f33d 22ec 733e d564 483e 9ef8 5a3e
00000040: 42a4 7d3e ba1b b23c 0510 a0bc 851d 61be
00000050: 6a2b 18bd 03b3 00bb 059f 4bbe 82f6 043d
00000060: 16cd c0bd e700 5ebe 437b 613d 23da fb3d
00000070: 761b 103e 52b0 07be d430 16be f644 2dbe
00000080: ded2 fe3d 64de e53d 4842 f0bd 3b83 9a3d
00000090: 0671 1e3d a4c5 a7bd 896f d83b 3ac8 edbd
000000a0: 0bcb 66bd 1bd8 9b3d b6a1 de3c 97a7 12be
000000b0: 775f 463d e24c 1dbd 06c5 10be 5a34 36be
000000c0: fdf9 073c 8709 11be eced f0bd 70f2 3d3d
000000d0: 146d 423c cc70 b2bd 48c0 a23e b38d 093f
000000e0: c631 98bd c539 653e 073a f63e d6d1 403d
000000f0: 514b bd3e 72b9 173f fbc3 52bc 38b0 3b3d
00000100: e57a 86bd 720a c9bc 2c87 f63d 2f92 14be
00000110: 1ea2 01be fa5c 33be d4df 5a3e fafd b1bc
00000120: 87e2 c03d bc3c 3bbe aa5a 56bd 1472 303d
00000130: 5d23 8abe d80e 40be 1ac8 44be 76fd 6cbd
00000140: ad4c 35be d716 bb3e e85e 183f 9a3e 71bd
00000150: bee1 963e e823 883e 60b2 7abd 4c5e af3e
00000160: e7e4 f23e 085f aabd e128 4abe dd83 d7bd
00000170: 7dc0 153e d941 41be b027 d93b 65b8 a7bc
00000180: 1934 28be f1be 9bbc 6212 093e 44a4 823d
00000190: 401e f5bd 55d9 1dbd ba49 40be bf58 2bbe
000001a0: 704a 05bd aabf 833d 03d4 47bd 4872 41be
000001b0: 0908 e2bf e971 84bf 5507 083e 199f e0bf
000001c0: e228 6cbf 6962 0c3d a818 a7c0 7526 4abf
000001d0: c817 6f3d ce7e 79bd 95de d9bc e274 28bc
000001e0: 3032 c4be bff3 13be 06d4 dfbd 52c0 74bd
000001f0: f535 7dbe 7215 8fbd 09d0 523e 4ff8 db3e
00000200: 4691 863e 9819 cc3d 9198 913e 5591 783e
00000210: b965 0e3e a0b4 963e 29c1 f0bb 1891 b0be
00000220: ccbb 323e d4e4 4e3e dc5f 3dbe c5d8 48bd
00000230: 2421 b13d d7f6 bbbe e8e7 96bd edde b1bd
00000240: 2319 26bf 3d72 e8be c88d 86be 6882 e2be
00000250: 9acb 02bf a156 dbbd 4160 3dbf f900 11bf
00000260: 83c4 68be 7614 623e a673 873e 4aa8 c33e
00000270: cdda df3b 1adf c83e a7f9 843e c08e 423e
00000280: b61a 753e 06e5 bc3d f8d8 d23d 4ff9 2a3d
00000290: bfd8 073e 7006 113e cf5f 27be 2a8e 363e
000002a0: aa84 35bd c506 04be 6700 2c3e 2755 f9bc
000002b0: dae2 013d 0ea3 ec3c 1702 d4bd 85f0 f93d
000002c0: d673 953d 76bc 1e3e 9615 5bbd bd99 10be
000002d0: f465 1a3d 21cd 53bd 1660 d038 c147 20be
000002e0: 8fbd 303e b549 cfbd aa6f 8ebc c603 a03b
000002f0: 9339 abbd 1323 90bf c791 c4bf 8852 84be
00000300: 4223 b9bf a45a a4bf 4644 c4be 4d3a 97bf
00000310: 3a8f c8bf 97d4 d9be 5c32 a0bd f06d 65be
00000320: 9305 9a3e 391e bc3d 279a 03be a15f 833e
00000330: 9df8 1cbe fdad 893c 0970 50bc 72fb 0c3e
00000340: b27e 1e3e 20b7 493e 39df 4a3e 5e0e ae3c
00000350: 469e 203e e35d 903e cba4 b53e e348 6c3e
00000360: 5ebd 133c 5e4a c1bc 9399 bfbb 7ad0 e1be
00000370: 4dfd cabe 2e42 11bf f748 6abe 6560 adbe
00000380: 0145 fcbe 0cb6 bdbd 018a c1bc bfe3 acbe
00000390: 3c3f 41be 42aa c4bc 022b d53d b47c 45be
000003a0: 0663 313d 7b2e 743e 2adf 87be 4677 66be
000003b0: a477 6abe 264d 663e 937e 383d f093 593e
000003c0: dd02 083c 4277 3e3e 9363 f63c 658c 2b3e
000003d0: 7f40 c1bd e115 94bd 8fbd 313e c11d 1cbe
000003e0: 11de 5e3d 0fe9 c33d 17ec 88bc f142 2d3e
000003f0: 914a 37be cbf4 e4bc 9066 cfbd ab4a 9b3d

conv1.bias f4 [16]
-0.046902772 -0.033967685 -0.009807032 0.07394592 -0.2238472 -0.13974454 -0.14280756 -0.11734311
0.090218656 -0.016112672 -0.09606248 -0.04332969 0.11540845 0.0074168425 -0.15998942 0.054073695
00000000: 1f1d 40bd b321 0bbd acad 20bc f570 973d
00000010: 3338 65be 3119 0fbe 253c 12be 9651 f0bd
00000020: 8fc4 b83d b9fe 83bc 68bc c4bd 797a 31bd
00000030: 445b ec3d fc08 f33b 44d4 23be 617c 5d3d

conv2.weight f4 [32, 16, 3, 3]
-0.09630331 0.21514556 0.36333704 -0.059513252 0.31368896 0.4625686 -0.080760896 0.24505647
0.23960169 -0.06977065 0.039042346 -0.05112475 0.0011521678 0.06415209 0.041828632 -0.01058653
0.013133029 0.0028666756 0.007192999 0.54802984 -0.7895607 0.07254155 0.44605455 -0.6575225
-0.035529852 0.41184148 -0.78184026 -0.07279051 0.046608455 -0.67115414 0.07781539 0.028851787
-0.7304622 -0.05351529 -0.063239776 -0.71473557 0.10924692 -0.6823473 -0.19327466 0.093569584
-0.6070087 0.08050089 0.12256433 -1.1723802 -0.051891025 0.36527622 -0.101415314 -0.3186759
0.38981953 -0.24862786 -0.14990902 0.16422985 -0.29501006 -0.04412848 -0.05376072 -0.045687895
-0.034088902 -0.06373462 -0.06405637 -0.054406226 0.08124458 0.0048412383 -0.03140413 0.038564816
-0.02757927 -0.12561291 0.065815136 -0.037176285 -0.06319436 0.09042226 0.028982675 0.072536945
0.018501025 -0.55843264 -0.4627084 -0.34932327 0.104704976 0.083171494 -0.012295222 -0.058088444
-0.10446031 0.034343205 0.054614216 -0.02269746 0.023339838 -0.07263592 -0.0093576815 0.073525235
0.07786598 -0.026535403 0.03079026 0.07685616 0.030904999 0.015276134 -0.06715028 0.023957055
0.02224807 -0.046941828 0.041610986 -0.062175736 0.079778686 -0.0041935346 0.047784455 0.00626537
-0.042330943 0.04614187 0.079089254 0.08182494 0.26620606 -0.22652422 -0.27242857 0.1385813
-0.19320348 0.029794347 0.14902362 -0.1774723 0.061806142 0.23511842 0.20143697 0.8229029
0.25495702 0.25512534 0.75054955 0.101648994 0.13315132 0.504093 -0.061868217 -0.03996916
-0.009780749 -0.008088308 0.008392517 0.07420699 0.06343918 0.08577246 -0.047574885 -0.32585505
0.17381038 -0.2456924 -0.3733014 0.2350754 -0.098661765 -0.32416093 0.11856872 -0.06033659
-0.060616888 -0.117516264 0.029207757 -0.030139867 -0.110768825 -0.058514576 0.061877344 -0.050968137
0.06542819 -0.028917968 0.08140655 -0.020858794 0.078875445 0.032325238 -0.062616065 0.036414783
0.034991384 -0.0699584 -0.07204741 -0.01606474 0.04513818 0.07100411 -0.044002336 -0.08315018
0.03806622 0.0058107874 -0.0029234968 0.052611582 -0.006904915 0.072237544 0.053736974 0.0004936112
0.052234914 0.016479239 -0.085678615 0.06503821 -0.008988892 -0.010295342 0.045899794 0.061536647
-0.14419553 -0.02146784 -0.04581049 -0.05238383 -0.013783115 -0.040547997 -0.03514408 0.018919727
-0.02311146 0.004019996 0.04797588 0.020418739 -0.0049389713 0.042163003 -0.031330787 0.00012040138
-0.07713311 -0.03547908 -0.006528328 0.07557344 0.04707825 -0.015476356 -0.022671422 0.009483151
-0.05869113 -0.03390204 0.015180183 -0.056498315 0.027355231 0.033517588 -0.038655 -0.04428763
0.008285344 0.021707999 0.023359468 -0.022892173 -0.002446547 -0.0338663 -0.055071767 -0.096258745
0.0016956477 0.07211012 -0.032393854 0.05229467 -0.024750292 0.04982106 -0.018675447 -0.03455029
0.024435222 0.044088285 -0.06351353 -0.006079714 0.017295977 0.01498892 0.08123889 -0.07305046
0.07111476 0.043091565 -0.07858121 -0.03210939 0.0066446485 -0.06272759 0.085225135 -0.05365218
0.03194213 0.023393508 -0.03244121 -0.07842381 -0.004770327 -0.09099276 -0.037340034 0.01687398
00000000: ab3a c5bd 1e4f 5c3e 5007 ba3e 2bc4 73bd
00000010: d79b a03e cbd5 ec3e f865 a5bd 15f0 7a3e
00000020: 255a 753e eae3 8ebd deea 1f3d 3068 51bd
00000030: 5604 973a 2c62 833d 8054 2b3d 2073 2dbc
00000040: eb2b 573c d6de 3b3b 40b3 eb3b af4b 0c3f
00000050: a620 4abf aa90 943d 4361 e43e 6553 28bf
00000060: c087 11bd e3dc d23e af26 48bf 3113 95bd
00000070: 82e8 3e3d c2d0 2bbf ad5d 9f3d 955a ec3c
00000080: 92ff 3abf d932 5bbd db83 81bd e9f8 36bf
00000090: d9bc df3d 50ae 2ebf cbe9 45be 69a1 bf3d
000000a0: ec64 1bbf a7dd a43d 0203 fb3d 8e10 96bf
000000b0: af8b 54bd 7c05 bb3e d5b2 cfbd 7d29 a3be
000000c0: 6d96 c73e 4d98 7ebe c081 19be df2b 283e
000000d0: 8f0b 97be 11c0 34bd 3334 5cbd 3b23 3bbd
000000e0: cea0 0bbd 4c87 82bd fc2f 83bd 10d9 5ebd
000000f0: 8f63 a63d 40a3 9e3b 9ea1 00bd 24f6 1d3d
00000100: eced e1bc aca0 00be 16ca 863d 2946 18bd
00000110: 0b6c 81bd 4e2f b93d 136d ed3c 408e 943d
00000120: 768f 973c 71f5 0ebf 1ee8 ecbe 80da b2be
00000130: 906f d63d d155 aa3d e671 49bc 26ee 6dbd
00000140: 49ef d5bd 76ab 0c3d 28b3 5f3d 06f0 b9bc
00000150: 3033 bf3c 24c2 94bd f650 19bc 6694 963d
00000160: 3378 9f3d c660 d9bc db3b fc3c c366 9d3d
00000170: 7b2c fd3c c048 7a3c 1686 89bd 9641 c43c
00000180: 9641 b63c 1346 40bd 4870 2a3d fcab 7ebd
00000190: 0263 a33d eb69 89bb a2b9 433d bc4d cd3b
000001a0: 3663 2dbd 42ff 3c3d 8cf9 a13d d693 a73d
000001b0: 294c 883e f7f5 67be c27b 8bbe 42e8 0d3e
000001c0: 22d7 45be 4613 f43c a699 183e 4cbb 35be
000001d0: 7028 7d3d e2c2 703e 7e45 4e3e c4a9 523f
000001e0: ba89 823e ca9f 823e 0424 403f 592d d03d
000001f0: d258 083e 3d0c 013f 8769 7dbd b4b6 23bd
00000200: 6f3f 20bc d384 04bc c580 093c d6f9 973d
00000210: 67ec 813d 79a9 af3d e2dd 42bd 79d6 a6be
00000220: 59fb 313e ca96 7bbe 5c21 bfbe 9bb7 703e
00000230: 2e0f cabd 6cf8 a5be 28d4 f23d 8023 77bd
00000240: 6a49 78bd 5eac f0bd 1b45 ef3c e2e7 f6bc
00000250: c4da e2bd fbac 6fbd 1973 7d3d f7c3 50bd
00000260: 37ff 853d 60e5 ecbc 7ab8 a63d 10e0 aabc
00000270: 7389 a13d 7867 043d da3c 80bd ab27 153d
00000280: 2053 0f3d 5a46 8fbd 988d 93bd 349a 83bc
00000290: d0e2 383d 9a6a 913d cb3b 34bd a44a aabd
000002a0: 53eb 1b3d 6b68 be3b 2398 3fbb 3e7f 573d
000002b0: a042 e2bb 47f1 933d 4d1b 5c3d b065 013a
000002c0: 47f4 553d 78ff 863c 4578 afbd c132 853d
000002d0: 2546 13bc cbad 28bc 6c01 3c3d da0d 7c3d
000002e0: fea7 13be 53dd afbc c8a3 3bbd 6d90 56bd
000002f0: 93d2 61bc a815 26bd 3df3 0fbd 8bfd 9a3c
00000300: 3f54 bdbc 2cba 833b 5b82 443d 3345 a73c
00000310: 18d7 a1bb 1db3 2c3d b654 00bd 0080 fc38
00000320: f7f7 9dbd 8352 11bd 96eb d5bb 3fc6 9a3d
00000330: 20d5 403d 8b90 7dbc 6bb9 b9bc 385f 1b3c
00000340: 1c66 70bd dedc 0abd 4db6 783c c76a 67bd
00000350: 1418 e03c bd49 093d b554 1ebd f266 35bd
00000360: 40bf 073c f9d4 b13c 5b5c bf3c 5e88 bbbc
00000370: 3f56 20bb 64b7 0abd ef92 61bd 4e23 c5bd
00000380: 7f40 de3a 78ae 933d 6baf 04bd f032 563d
00000390: 20c1 cabc 2b11 4c3d 40fd 98bc 9b84 0dbd
000003a0: 602c c83c eb95 343d 6213 82bd 5638 c7bb
000003b0: 4bb0 8d3c 1694 753c 9360 a63d 7b9b 95bd
000003c0: 9ea4 913d c880 303d 2fef a0bd 2385 03bd
000003d0: 5abb d93b 5377 80bd 848a ae3d 63c2 5bbd
000003e0: c0d5 023d bea3 bf3c 13e1 04bd aa9c a0bd
000003f0: 6750 9cbb 6a5a babd ddf1 18bd 4d3b 8a3c

conv2.bias f4 [32]
0.1256686 -0.10903217 0.04147443 -0.16516392 -0.07218223 -0.14524862 0.044563018 0.23451583
-0.08405099 -0.08068664 -0.039739538 0.013203597 0.069350086 -0.037196934 -0.007995339 -0.11696476
0.15184723 -0.083141975 -0.0047186418 0.25283095 -0.061022136 -0.1351898 -0.16739671 0.08184603
0.14110148 -0.05158694 0.033943757 -0.06631442 0.07343431 -0.072593264 0.029674357 0.1659445
00000000: 45af 003e 424c dfbd 18e1 293d bb20 29be
00000010: 47d4 93bd 0ebc 14be b687 363d eb24 703e
00000020: ed22 acbd 0a3f a5bd edc5 22bd e653 583c
00000030: 6b07 8e3d d05b 18bd e2fe 02bc 388b efbd
00000040: d77d 1b3e 5746 aabd d69e 9abb 0f73 813e
00000050: 59f2 79bd 326f 0abe 0b6a 2bbe e49e a73d
00000060: e87c 103e d44c 53bd 9c08 0b3d dbcf 87bd
00000070: ba64 963d c7ab 94bd a317 f33c 5bed 293e

conv3.weight f4 [64, 32, 3, 3]
-0.027987609 0.026878802 -0.047540955 -0.02913587 0.02367325 0.021559883 -0.053512722 -0.059848472
0.03813694 -0.0040397192 0.05474549 -0.058117457 0.015629977 -0.058276173 0.024524366 -0.01995637
-0.0062509608 -0.007275621 0.0075763315 -0.039656576 -0.03269378 0.025680404 -0.034088448 0.016490854
-0.006959885 0.037214633 -0.01482866 0.04153523 -0.0015667178 -0.032739 0.011125504 -0.03621848
0.014205645 -0.028285446 0.007113784 -0.011101466 -0.015257089 -0.05084948 -0.01978085 0.04919743
0.033226546 -0.024640657 0.0069104675 0.01474426 0.036198355 0.040211752 -0.032345388 -0.013990492
0.048366733 0.006028875 -0.032630272 -0.029612608 -0.029198874 -0.055545438 -0.039544147 0.05851271
-0.007096581 0.039303824 -0.06285752 0.02778597 0.022707365 -0.06350743 -0.014266357 0.015423864
-0.04630009 0.022656228 0.034302708 -0.081645735 -0.022684522 0.041331574 -0.03277847 -0.034460466
0.014727085 -0.048838053 0.019676488 -0.034076113 0.021407664 -0.031311885 -0.017611342 -0.027354449
0.030804541 -0.05403594 0.035674084 0.030606199 -0.041494343 0.039790045 0.043718047 -0.037118934
0.005382363 0.014749135 -0.0081130015 0.042867918 -0.014962272 -0.020209484 0.01663416 0.03165747
0.046546932 -0.058672328 -0.014619639 -0.026070679 -0.021553827 -0.016056994 -0.03317188 -0.034789436
-0.031862658 -0.03995596 0.023375401 0.03230414 -0.026837807 0.055604182 0.021627802 -0.044716023
0.02801062 0.0052433982 0.050098892 -0.005142147 -0.023760805 0.045823473 -0.054166127 0.025259364
-0.050406706 -0.042821616 -0.0059163426 -0.055433244 -0.06131022 -0.02357958 -0.008073714 0.012070436
-0.04094017 0.04812427 0.008948275 0.0072752624 0.01324117 -0.03719642 -0.0009167291 -0.052051865
0.057099447 -0.022082904 -0.05467054 0.005202319 -0.043142077 -0.050512508 -0.041461464 -0.008719305
0.020772321 -0.05890154 -0.008786529 -0.040332086 -0.05176665 0.024396949 0.014056253 -0.019566
-0.022564305 0.01855097 -0.026339363 -0.0036538297 0.033220455 -0.011512854 0.056774862 0.05833604
0.016907679 -0.0056426693 -0.01410381 0.024073178 0.008891419 -0.04973477 -0.050247952 0.00041121978
0.014797913 0.036716655 0.041862946 0.018725479 0.043629173 0.043423265 -0.04324117 0.026657239
-0.028325802 -0.037292458 -0.021278922 -0.039750848 0.0044026175 0.0020737303 0.017989475 -0.033631366
0.029958429 0.043788012 0.0054768426 0.027615275 -0.03366249 0.02508239 -0.03444784 -0.020927716
-0.011118739 -0.00036614374 0.053276744 0.008689887 0.058316845 0.01389897 -0.018397598 -0.019483231
-0.005759697 -0.038666192 0.022861391 0.05269352 0.033869006 0.036034536 0.05722286 0.007612318
-0.003585074 -0.019922014 -0.049326424 -0.067214355 -0.0031880368 -0.04155306 -0.06925826 0.009729881
-0.03386329 -0.04896369 -0.040929887 0.022566997 0.008092244 -0.05600927 -0.04754673 0.023539478
0.055190925 0.020411333 0.029657628 -0.0027345647 0.024918672 0.029864252 -0.03164225 0.029891338
-0.015955096 0.020954922 -0.055522423 -0.03193304 -0.03459178 -0.041919056 0.02763592 -0.028957428
0.003519019 -0.031522118 0.009303587 -0.026326783 -0.034093667 -0.04790862 0.004792701 -0.05411982
-0.054657158 0.05273623 0.024699809 -0.009672673 -0.027422657 0.052136607 -0.0025483388 -0.049107905
00000000: 4546 e5bc ef30 dc3c 4eba 42bd 59ae eebc
00000010: 67ee c13c 5a9e b03c 2830 5bbd ac23 75bd
00000020: 7b35 1c3d 9f5f 84bb cf3c 603d 920c 6ebd
00000030: 700a 803c ffb2 6ebd 53e7 c83c 8b7b a3bc
00000040: dcd4 ccbb 5568 eebb e042 f83b ef6e 22bd
00000050: eae9 05bd b65f d23c 54a0 0bbd d417 873c
00000060: bf0f e4bb 5f6e 183d e8f3 72bc d820 2a3d
00000070: 535a cdba 5419 06bd bf47 363c d459 14bd
00000080: cbbe 683c e1b6 e7bc bf1a e93b ece2 35bc
00000090: dff8 79bc 8b47 50bd 730b a2bc 3f83 493d
000000a0: 8f18 083d 34db c9bc 3471 e23b e991 713c
000000b0: ba44 143d 14b5 243d 997c 04bd 6038 65bc
000000c0: 321c 463d de8d c53b 52a7 05bd 2496 f2bc
000000d0: 7a32 efbc 9d83 63bd 0bf9 21bd 06ab 6f3d
000000e0: 708a e8bb 0cfd 203d 72bb 80bd 679f e33c
000000f0: cc04 ba3c 2f10 82bd 70bd 69bc 60b4 7c3c
00000100: 2aa5 3dbd 8e99 b93c ff80 0c3d e135 a7bd
00000110: e4d4 b9bc 4c4b 293d b842 06bd 6b26 0dbd
00000120: df49 713c 690a 48bd 9630 a13c 6593 0bbd
00000130: 205f af3c e440 00bd a945 90bc 7016 e0bc
00000140: ce59 fc3c ca54 5dbd fd1e 123d dab9 fa3c
00000150: f9f5 29bd e3fa 223d b211 333d 060a 18bd
00000160: 895e b03b 5ba6 713c 65ec 04bc 4596 2f3d
00000170: 5124 75bc 5c8e a5bc 5d44 883c 43ab 013d
00000180: ffa7 3e3d 6552 70bd 3687 6fbc 2d92 d5bc
00000190: a791 b0bc f589 83bc 3ddf 07bd 5e7f 0ebd
000001a0: 6b82 02bd dca8 23bd c57d bf3c 5951 043d
000001b0: f6da dbbc 36c1 633d ca2c b13c 2628 37bd
000001c0: 8776 e53c d0d0 ab3b 7f34 4d3d 757f a8bb
000001d0: 05a6 c2bc 65b1 3b3d 4ddd 5dbd baec ce3c
000001e0: 4377 4ebd b865 2fbd e1dd c1bb f80d 63bd
000001f0: 6d20 7bbd f729 c1bc 9c47 04bc 14c3 453c
00000200: e1b0 27bd f41d 453d c99b 123c 5365 ee3b
00000210: 7ef1 583c 465b 18bd a650 70ba 5634 55bd
00000220: 1ce1 693d 35e7 b4bc 37ee 5fbd 3778 aa3b
00000230: bfb5 30bd 34e6 4ebd 7fd3 29bd 6adb 0ebc
00000240: b72a aa3c be42 71bd 60f5 0fbc 4233 25bd
00000250: 4409 54bd 1cdc c73c 334c 663c e048 a0bc
00000260: c7d8 b8bc 34f8 973c a6c5 d7bc 1775 6fbb
00000270: 2c12 083d 69a0 3cbc c28c 683d c5f1 6e3d
00000280: f981 8a3c 24e6 b8bb ab13 67bc 1d35 c53c
00000290: 50ad 113c b0b6 4bbd ccd0 4dbd fc98 d739
000002a0: f272 723c 3464 163d 7b78 2b3d 2d66 993c
000002b0: 81b4 323d 98dc 313d a71d 31bd 4860 da3c
000002c0: 830b e8bc fabf 18bd 2251 aebc c9d1 22bd
000002d0: d543 903b 6ce7 073b aa5e 933c 0bc1 09bd
000002e0: 616b f53c 0f5b 333d 1677 b33b 6e39 e23c
000002f0: aee1 09bd 9679 cd3c 2e19 0dbd 9a70 abbc
00000300: 5f2b 36bc fbf6 bfb9 b738 5a3d 0760 0e3c
00000310: a5dd 6e3d 81b8 633c 8fb6 96bc 4c9b 9fbc
00000320: d7bb bcbb 7160 1ebd d047 bb3c 29d5 573d
00000330: 3aba 0a3d f398 133d 8562 6a3d c070 f93b
00000340: 90f3 6abb 7e33 a3bc 810a 4abd aea7 89bd
00000350: 62ee 50bb 8b33 2abd 46d7 8dbd 146a 1f3c
00000360: 3cb4 0abd 268e 48bd 19a6 27bd 6cde b83c
00000370: 5595 043c fa69 65bd 5cc0 42bd ddd5 c03c
00000380: e10f 623d ab35 a73c 8ef4 f23c 6236 33bb
00000390: 3e22 cc3c e0a5 f43c 4e9b 01bd aede f43c
000003a0: 43b4 82bc a8a9 ab3c 7b6b 63bd 38cc 02bd
000003b0: 1cb0 0dbd 51b3 2bbd ba64 e23c 2138 edbc
000003c0: 589f 663b 561d 01bd 126e 183c 44ab d7bc
000003d0: cda5 0bbd d43b 44bd 170c 9d3b bfac 5dbd
000003e0: 2fe0 5fbd f201 583d 4157 ca3c 227a 1ebc
000003f0: 7ba5 e0bc 328d 553d 0802 27bb 5f25 49bd

conv3.bias f4 [64]
-0.056897905 -0.036599137 -0.0651832 -0.13005254 -0.12259196 -0.19136912 -0.052756038 -0.040609457
-0.084155954 0.2424621 0.26026672 -0.080325685 -0.33851317 -0.2126339 -0.035741273 -0.13501056
0.034183517 -0.36364567 -0.06420513 0.47914606 -0.13950753 -0.06743533 0.06828357 0.3274242
-0.083336785 -0.02984234 -0.11868539 0.013028921 -0.050918262 0.0049716653 -0.089803554 -0.1621788
-0.080742836 0.013630025 0.0011039744 -0.25632915 0.011098965 -0.21058829 -0.009770704 0.4106949
0.0630503 -0.0070133833 0.0024762112 -0.014413183 -0.07131535 -0.14878213 -0.057972834 -0.11951341
-0.06573665 -0.18805861 -0.19347696 -0.18368883 -0.057308257 -0.04112962 -0.17004615 -0.097001866
-0.018180866 -0.09942372 -0.15518288 0.033023085 -0.35925683 -0.3529988 -0.24346577 -0.026031744
00000000: c70d 69bd fae8 15bd c57e 85bd 7e2c 05be
00000010: 7e11 fbbd 44f6 43be b716 58bd 1a56 26bd
00000020: f559 acbd fc47 783e ae41 853e cb81 a4bd
00000030: 9951 adbe b3bc 59be 7165 12bd 3540 0abe
00000040: 0404 0c3d c42f babe fb7d 83bd a252 f53e
00000050: 10db 0ebe 891b 8abd 42d8 8b3d 25a4 a73e
00000060: 7aac aabd ec77 f4bc 5311 f3bd 4177 553c
00000070: ab8f 50bd 5ae9 a23b edea b7bd 3312 26be
00000080: 805c a5bd 7850 5f3c 3cb3 903a 933d 83be
00000090: 6fd8 353c 75a4 57be 4e15 20bc 9a46 d23e
000000a0: 8420 813d 86d0 e5bb ee47 223b 4525 6cbc
000000b0: c80d 92bd 585a 18be ec74 6dbd 72c3 f4bd
000000c0: f0a0 86bd 7092 40be d31e 46be ed18 3cbe
000000d0: 10bc 6abd 8877 28bd 9420 2ebe eaa8 c6bd
000000e0: 0af0 94bc aa9e cbbd 43e8 1ebe 3743 073d
000000f0: 83f0 b7be 42bc b4be 174f 79be 8640 d5bc

fc.weight f4 [4, 64]
-0.0677976 0.041485455 0.38792598 0.2092213 0.7601158 0.052023802 -0.063367695 -0.0054520224
-0.023892995 0.14572679 -0.43303356 -0.017955167 0.5115728 1.4907095 -0.0905539 1.2295141
0.054406278 -0.848986 0.0630907 -0.3476002 0.03393333 -0.028361797 -0.6641649 -0.47177017
-0.12549232 -0.7742042 1.3712733 -1.5200133 0.4908387 0.06786607 0.8141989 -0.10166982
0.060005248 0.044738926 0.02458646 0.5701811 -0.028904386 1.0700195 -0.087298 -0.19661431
-1.4007643 0.755069 -0.057650775 -1.1511962 -0.81666476 0.5708082 0.06258678 -0.019986114
0.07781047 0.6767004 0.5495202 0.6221006 0.022777382 0.52597684 0.34707165 0.061305195
-0.021798216 -0.47833475 -0.6459653 1.0574723 -0.72556627 0.10481544 -0.17910643 -0.056042623
-0.017189573 -0.09301754 -0.7472795 -0.5655475 -3.1105974 0.57841814 -0.03667124 0.8795125
-0.021464715 0.6488619 -0.23223709 -0.006181334 -0.29424262 -0.3995152 0.002926763 -1.2960589
0.06699815 0.32108787 -0.074481055 0.19576706 0.0006667593 -0.07817701 -0.14657046 0.89290804
0.11039549 0.014145311 -0.38521737 0.011497607 0.8157891 0.013769108 0.19873156 -1.7303278
-0.111255504 0.014132396 0.086211205 -1.3698664 0.002987765 -1.9071643 -0.06724749 0.52329785
0.9025712 0.81864667 0.06514603 -0.8418714 -0.31285673 0.9558334 -0.16610953 -1.9163529
0.10069625 0.2086663 -0.9931387 -3.2972648 -0.053420305 -0.5763096 -1.1965328 -0.11921939
0.054677147 -1.6829466 -0.0955641 -1.3259088 -2.0692468 -3.5838034 -2.283113 0.06377277
-0.08083463 -0.042593237 -1.0754604 1.6931318 -0.02720912 0.6167478 -0.06612556 0.8184616
0.009142394 -0.8662514 -0.054819442 -0.14180538 0.7704228 -0.63430285 0.045460142 1.8564023
-0.0073111327 1.2720906 -0.063463725 -0.2554653 0.008730494 -0.005737592 0.67599154 -0.49523798
-0.07276409 0.36038992 -1.0000534 0.69390416 -0.9363035 0.010183396 0.7351712 0.20353378
-0.107826665 -0.08107364 -0.040731452 0.1210739 0.0063442034 1.9186943 -0.08499633 -0.5120469
1.1535743 0.23719524 -0.063713916 0.7395571 0.61634004 -0.5797043 -0.0039861007 0.046537574
-0.09102814 1.3689845 0.26403546 -0.07496901 -0.033213053 -0.6895149 0.055298407 -0.07656815
-0.09905938 0.758233 0.7452165 2.1449184 0.854543 0.18569311 0.6154191 -0.083389856
-0.12695493 -0.02592497 1.1527458 -2.2356954 -0.076657966 -2.00246 -0.054607145 -2.895548
0.021722414 0.34820524 0.6760407 -0.08085776 -2.0726666 -0.7107664 -0.01812478 -3.2014163
0.028057672 -0.6831289 0.06534328 0.5459815 0.054496787 0.09875938 0.086517796 0.7543515
0.010030299 0.52920675 -0.08400963 0.6613499 -0.8753902 0.063201405 -2.0813591 0.6925127
-0.01170479 0.09670782 0.015140959 0.04416434 -0.043298755 -3.0715501 0.10549133 0.20887835
-0.29456982 -2.167686 0.09834294 0.6180449 0.6361393 -1.2012924 -0.0815459 0.68372995
-0.0021614404 -2.745232 -0.5128356 -0.040475152 -0.064031824 0.5075543 -0.058599703 0.007668444
0.1034188 0.14626722 -0.04231193 -3.8068805 0.2268072 0.20378168 0.08245181 -0.071654156
00000000: 78d9 8abd a7ec 293d 3c9e c63e 1c3e 563e
00000010: f396 423f e916 553d ecc6 81bd e1a6 b2bb
00000020: 3ebb c3bc 6739 153e 93b6 ddbe b716 93bc
00000030: 6ff6 023f 92cf be3f 5374 b9bd b860 9d3f
00000040: 1ed9 5e3d 2657 59bf b235 813d a7f8 b1be
00000050: adfd 0a3d 0057 e8bc b606 2abf dc8b f1be
00000060: 0f81 00be 3f32 46bf e285 af3f cc8f c2bf
00000070: 364f fb3e 5efd 8a3d 576f 503f 4438 d0bd
00000080: 10c8 753d 2a40 373d 8b69 c93c 63f7 113f
00000090: e4c8 ecbc 66f6 883f 4bc9 b2bd 4355 49be
000000a0: 3f4c b3bf 344c 413f 3823 6cbd 665a 93bf
000000b0: f110 51bf 7c20 123f 7f2d 803d ebb9 a3bc
000000c0: 185b 9f3d 3d3c 2d3f 5bad 0c3f fc41 1f3f
000000d0: a297 ba3c 6ba6 063f 60b3 b13e 281b 7b3d
000000e0: 2c92 b2bc 4be8 f4be fb5d 25bf 415b 873f
000000f0: b6be 39bf 7aa9 d63d ad67 37be f38c 65bd
00000100: 26d1 8cbc fb7f bebd b64d 3fbf b9c7 10bf
00000110: 0714 47c0 3613 143f 9534 16bd bb27 613f
00000120: c5d6 afbc d01b 263f 8fcf 6dbe ca8c cabb
00000130: f8a6 96be 428d ccbe efce 3f3b 42e5 a5bf
00000140: 5336 893d a165 a43e 8689 98bd 2977 483e
00000150: 76c9 2e3a 451b a0bd 9116 16be 9f95 643f
00000160: 0817 e23d bcc1 673c 363b c5be 7660 3c3c
00000170: 8ed7 503f d397 613c 4980 4b3e 627b ddbf
00000180: edd9 e3bd 918b 673c 808f b03d c857 afbf
00000190: 61ce 433b f61d f4bf 0db9 89bd d9f6 053f
000001a0: e80e 673f d492 513f 486b 853d e284 57bf
000001b0: c22e a0be 7fb1 743f 9e18 2abe 0d4b f5bf
000001c0: d639 ce3d 9eac 553e 563e 7ebf 6306 53c0
000001d0: 40cf 5abd 0789 13bf fd27 99bf 4c29 f4bd
000001e0: 25f5 5f3d cb6a d7bf 1cb7 c3bd 61b7 a9bf
000001f0: 8a6e 04c0 095d 65c0 861e 12c0 4c9b 823d
00000200: a08c a5bd 3f76 2ebd b0a8 89bf 8bb8 d83f
00000210: a9e5 debc 2fe3 1d3f d66c 87bd b386 513f
00000220: fbc9 153c a7c2 5dbf 5a8a 60bd 6e35 11be
00000230: 6e3a 453f ac61 22bf 6a34 3a3d 979e ed3f
00000240: 3a92 efbb ddd3 a23f 45f9 81bd 59cc 82be
00000250: 590a 0f3c 6902 bcbb c80d 2d3f d58f fdbe
00000260: 5705 95bd 0785 b83e c001 80bf b4a3 313f
00000270: 96b1 6fbf 42d8 263c 2e34 3c3f 296b 503e
00000280: 3ad4 dcbd f009 a6bd 06d6 26bd 98f5 f73d
00000290: 09e3 cf3b c697 f53f 8e12 aebd 8115 03bf
000002a0: 53a8 933f 4fe3 723e 717c 82bd 9d53 3d3f
000002b0: 76c8 1d3f 8067 14bf d69d 82bb 2f9e 3e3d
000002c0: f66c babd e23a af3f a82f 873e 5a89 99bd
000002d0: 690a 08bd 0c84 30bf 9580 623d c3cf 9cbd
000002e0: a5df cabd 8f1b 423f 82c6 3e3f 5846 0940
000002f0: 54c3 5a3f 5626 3e3e 1b8c 1d3f 4dc8 aabd
00000300: 7900 02be 9a60 d4bc 2d8d 933f a215 0fc0
00000310: dafe 9cbd 4e28 00c0 beab 5fbd a950 39c0
00000320: 34f3 b13c f547 b23e 0111 2d3f c198 a5bd
00000330: 92a6 04c0 c9f4 35bf 6b7a 94bc 01e4 4cc0
00000340: 34d9 e53c 89e1 2ebf b3d2 853d 72c5 0b3f
00000350: 0638 5f3d 5c42 ca3d 3e30 b13d 2e1d 413f
00000360: 2056 243c 187a 073f 3e0d acbd 3a4e 293f
00000370: 9219 60bf bd6f 813d fd34 05c0 8348 313f
00000380: 73c5 3fbc c00e c63d c911 783c abe5 343d
00000390: 095a 31bd 4794 44c0 d70b d83d 35e4 553e
000003a0: dbd1 96be 5ebb 0ac0 0668 c93d 3138 1e3f
000003b0: 06da 223f f3c3 99bf 8901 a7bd ed08 2f3f
000003c0: f4a6 0dbb e2b1 2fc0 3249 03bf 46c9 25bd
000003d0: 1e23 83bd 14ef 013f 3e06 70bd 9247 fb3b
000003e0: 3ccd d33d 13c7 153e 464f 2dbd eea3 73c0
000003f0: 2640 683e 25ac 503e 7fdc a83d 6abf 92bd

fc.bias f4 [4]
-0.3036906 0.3374899 -0.1933092 0.41326168
00000000: 567d 9bbe 7acb ac3e d9f2 45be 0997 d33e
